FBIproject/fbiapp/script/model/pretrained_신체활동.pt (torch, 17662 bytes, 20 tensors)

0.weight f4 [30, 5]
00000000: 1937 41be 3670 aa3d 2d06 943e a680 94be
00000010: e706 39be 303f 76be 5e94 723e 548d 043d
00000020: f12f 56be a8ed acbd 0be7 d73e 5f73 b33e
00000030: 912f bd3d 8299 3dbe 9c54 513e 069c c7bd
00000040: fa9d 09bd f227 0cbb 1e1b c5be 58fa c83e
00000050: 923c 2fbd 7302 c23e c5a6 a9be 5e09 28bd
00000060: 564d d7be 0823 69be ed98 4d3e 4d24 033d
00000070: 0a68 0ebe 4164 033e 4e68 4abe deeb c1bd
00000080: 619a f8bd d14d 92be 7292 2fbe 9efc c03e
00000090: c97c d33e e793 aa3e 76e6 123e 7676 503e
000000a0: 4c99 98be 7cd0 0a3e 0e4c 8f3e 1c92 95be
000000b0: 2461 743d da95 973d d19e d43e 6af3 80be
000000c0: f3c8 153e c32e 3fbe eb4a 1b3d 69ae d73e
000000d0: c365 023f 0333 c93e ba8e 1cbe 05f4 cbbe
000000e0: 4b91 abbe 1592 b0be e2e3 073e b5cb 173e
000000f0: 102d 9bbd e387 9439 1a79 13bd df36 41be
00000100: 2e8c acbd 4de8 a0be fc89 8e3e d7a7 b43e
00000110: 9427 00bf ef60 eb3d 6639 b1bd 5052 64be
00000120: 5a60 78be 7571 7fbe 58bf 943a 52fc 1dbe
00000130: 8a4f 74be 923b 913e 5f4c c1be 6f26 ad3e
00000140: 3fe8 cfbe f5b8 2e3e 31ce d03d 72da 75be
00000150: 9bf8 8e3d 0259 05be ee23 eabe 2eeb 663d
00000160: 38e8 b43e b78c a4be d3ca d7bd 10fc f0bc
00000170: 36b2 1fbd ec8b 753e 3600 a03e fdde 90be
00000180: c7cf 8eba 6cce a33e c142 8ebe 4b1b a23d
00000190: ebbb c93e 4ac3 8b3e 82d9 ddbe 7c5d bd3e
000001a0: aaa9 923e 3b05 c03d 7a49 d2be 804a c13e
000001b0: 4a9b 603e 0dfc a4be 13c8 d73e 6d98 913c
000001c0: 1e88 adbe 5913 1fbe 910d dd3e 84fa 99be
000001d0: 0f80 b73e 9bdd 563e 97f1 883d eca2 b03e
000001e0: a292 a43e c6ea af3d f855 163e bc2e 35be
000001f0: 494c 44be 2c46 05be fe95 4bbe d244 92be
00000200: fa19 cc3e 41b7 0dbd 7d20 cb3e 190e e23d
00000210: 7ee8 ccbe 57a9 8c3d 9364 993d 58a3 993e
00000220: 6261 d8be 518b e6bd fa5e 783e d5bd 90bd
00000230: 2018 0e3e 1604 1abc c7a1 703e b634 4fbe
00000240: 7017 553e 1e07 fbbd 1111 f03e 0b49 8abd
00000250: 619f ce3e 0a66 893e
-0.18868674 0.08322184 0.28910962 -0.290044 -0.1806904 -0.24047542 0.2368941 0.032361344
-0.20916726 -0.08443767 0.4216846 0.3504896 0.09237588 -0.1851559 0.20442432 -0.09746556
-0.033597924 -0.0021386114 -0.3849725 0.39253497 -0.042782374 0.37892494 -0.33135048 -0.04102456
-0.4205119 -0.2276727 0.20077868 0.03201704 -0.13906875 0.12831213 -0.19766352 -0.09468816
-0.121388204 -0.28574994 -0.17145708 0.37692732 0.4130614 0.33315966 0.14345726 0.2035769
-0.29804456 0.13556093 0.27987713 -0.29213035 0.059662953 0.07401629 0.41527417 -0.2518571
0.14627437 -0.18670182 0.037913244 0.42125252 0.50936526 0.3929673 -0.15288821 -0.3983461
-0.33509287 -0.34486452 0.13270524 0.14823802 -0.07576954 0.00028330003 -0.036004163 -0.18868588
-0.08425175 -0.3142723 0.2783965 0.35284302 -0.5006039 0.11493098 -0.08653526 -0.22297025
-0.24255505 -0.24945624 0.0011348529 -0.15428284 -0.23858467 0.2836576 -0.3775358 0.33818385
-0.40606877 0.17062743 0.10195578 -0.24009112 0.069810115 -0.13022235 -0.45730537 0.05637663
0.3533342 -0.32138607 -0.105367325 -0.029417068 -0.038988315 0.23979157 0.3125016 -0.28295127
-0.0010895663 0.31993425 -0.27785304 0.07915362 0.39401183 0.2729743 -0.43330008 0.36985385
0.28645068 0.09375998 -0.41071683 0.3775215 0.21934238 -0.3222355 0.42144832 0.017772878
-0.33892912 -0.15534724 0.43174413 -0.3007394 0.35839888 0.20982973 0.066867046 0.344993
0.32143122 0.08589701 0.14681232 -0.17693609 -0.19169725 -0.1301505 -0.19881436 -0.2856813
0.3986357 -0.034598593 0.39673224 0.11037845 -0.40021127 0.068682365 0.07489886 0.30007434
-0.42261797 -0.11257041 0.2425498 -0.070674576 0.1387639 -0.009400388 0.23499213 -0.20234951
0.20809722 -0.12257217 0.4688802 -0.06752213 0.4035597 0.26835662

0.bias f4 [30]
00000000: 705f a9be 4db1 57be 5b9c d6be 8a95 7e3e
00000010: ddd3 973d fdf2 113e a27e a1bd a30b 803c
00000020: 6ffa d63d f5b7 49bc 7268 eb3d 28a9 8dbe
00000030: aa75 053e 02b5 c7be fe04 df3e dca1 ba3e
00000040: 3303 cdbe 7f9d bfbe 61ec 013e 960b 783e
00000050: c621 543e 32c7 dabe d271 913d f0f8 9b3e
00000060: 567e b43e cf43 95be e919 87bb 99ff 863c
00000070: 8cac dbbb 54eb bebe
-0.33080626 -0.21063729 -0.41916165 0.24861732 0.074134566 0.14252849 -0.078854814 0.015630549
0.10496985 -0.012311925 0.11494531 -0.27668118 0.13033167 -0.39005286 0.43558496 0.36451614
-0.40041503 -0.37424847 0.12687828 0.2422317 0.20716009 -0.427301 0.071017876 0.30463362
0.35252637 -0.29153296 -0.004122962 0.0164793 -0.006703919 -0.37288916

2.weight f4 [30]
00000000: 5707 823f 17bc 803f f3d4 7a3f 0000 803f
00000010: 2f86 813f aad7 803f 0000 803f f041 7b3f
00000020: b29a 833f 78f4 7b3f c935 843f 0791 823f
00000030: 0000 803f 9d6d 813f 0000 803f 6752 7e3f
00000040: c4c4 803f 518d 763f 5145 7a3f 30af 803f
00000050: 2160 7e3f 50ae 7b3f 41c3 783f 83c1 873f
00000060: 6da4 7f3f f4c7 753f 0477 803f df72 813f
00000070: b778 7c3f 8a2b 7e3f
1.015849 1.00574 0.97981185 1.0 1.0119075 1.0065815 1.0 0.9814749
1.0281584 0.98419905 1.0328914 1.0200509 1.0 1.0111576 1.0 0.99344486
1.0060048 0.9630938 0.9776202 1.0053463 0.9936543 0.98312855 0.97172934 1.060593
0.9986027 0.9600823 1.0036321 1.0113181 0.98621696 0.99285185

2.bias f4 [30]
00000000: 6fba 083d e281 323d 45ca f63c c9be 94bb
00000010: 8768 ba3c 01fd 8cbc 148c 6fbb 001a 48bb
00000020: 81d9 763c 83da 693d 116c a53d 7e90 153d
00000030: e106 32bd 93f5 873d 761d 6ebc 6f86 9e3c
00000040: 71cf 9dbc 2c12 e83b b61e 5cbc 1bff 473c
00000050: 485e 073d b127 3e3c 0747 13bd 3ec6 113d
00000060: e563 a2bb 0de9 2a3d d8d4 333d 8fcd 84bc
00000070: d558 263d 27f4 d03c
0.033380922 0.043580897 0.030125747 -0.004539345 0.02275492 -0.017210485 -0.0036552 -0.0030533075
0.015066505 0.057093155 0.08077253 0.03651475 -0.04346359 0.066386364 -0.014533391 0.019351212
-0.019263955 0.0070822444 -0.013435056 0.012206818 0.033048898 0.011606143 -0.03595641 0.03558945
-0.004955756 0.04172616 0.043904155 -0.0162113 0.04061206 0.025507046

2.running_mean f4 [30]
00000000: fe36 643f 801b a63f f269 a642 0000 0000
00000010: 5660 0340 aea4 963f 0000 0000 9054 c142
00000020: 7325 9a3f 67be c441 fb9a 4a42 f9a5 1a3b
00000030: 0000 0000 abc1 0540 0000 0000 a4eb f13a
00000040: 45e0 6a3f ea0e 2a3f 40d6 7740 271c f63e
00000050: 6810 9f42 1bde b741 835a 8542 a6de 4a41
00000060: 1414 6a42 dc84 3f3f c0e7 8342 b78a 4142
00000070: b3e5 c741 571f 9b41
0.8914641 1.2977142 83.206924 0.0 2.0527549 1.1769006 0.0 96.66516
1.2042679 24.59297 50.65135 0.0023597463 0.0 2.0899456 0.0 0.0018457067
0.9174846 0.6642901 3.8724518 0.48068354 79.53204 22.98345 66.67678 12.679358
58.519608 0.748121 65.95264 48.385464 24.987158 19.390303

2.running_var f4 [30]
00000000: a724 9841 66a1 2b42 1d39 5546 0400 0000
00000010: 7205 ea42 2143 0a42 0400 0000 c80e 2d46
00000020: 541f ff41 285c 1c44 8041 e643 980f 953c
00000030: 0400 0000 fb3d be42 0400 0000 d562 f43c
00000040: aef6 9d41 badd b341 e764 9441 6ced 1f41
00000050: 9b42 3d46 cb97 3744 86c2 4546 7e1d 4843
00000060: 83bc f445 dad4 e741 8255 3946 d128 cc45
00000070: 6642 b544 05c2 a943
19.017897 42.907616 13646.278 6e-45 117.010635 34.565556 6e-45 11075.695
31.890297 625.43994 460.51172 0.018195912 6e-45 95.121056 6e-45 0.029832283
19.74545 22.483265 18.549269 9.995464 12112.651 734.37177 12656.631 200.1152
7831.564 28.978931 11861.377 6533.102 1450.075 339.51578

3.weight f4 [30, 30]
00000000: 3cca 143e 03b4 abbd 4b75 35bd 3d87 0fbe
00000010: a29f 9bbd 1785 6a3c 87b9 1cbe 050a 88bd
00000020: 6f51 143e 4e90 fcbd c731 28bc 9e0a 043d
00000030: 5b2f 233e ec48 8cbc dd29 2cbd 0f74 41bd
00000040: 51e5 ae3c 106c 0e3e fb09 31be 26a7 b03d
00000050: 913c 4cbd c7d9 babd 8b1d 89bc 6244 24be
00000060: 0a88 403e 1206 233e fb6f 303e d243 b33d
00000070: 033b 0c3d cf72 5fbe da40 f23d 1b22 c23d
00000080: cb28 cdbd 5ace 36be 8a17 8d3d 9a0f 0fbd
00000090: 701c 1b3e d4d9 173e 2cbd edbc 5551 fabd
000000a0: fb95 ee3d de70 6e3d 8401 c73d 263f 393d
000000b0: b918 353e 68f4 4c3d 8c6a 483d d5f9 133e
000000c0: cf53 223e 65ba 003e 7a3d 0fbe cfbb 943d
000000d0: 8ecf 56bd 8562 073e 62a4 313e ae5a 8b3d
000000e0: 21a9 cebd 2584 d63c f88a 9b3c c1ba ab3d
000000f0: ed2b e43d 218a cd3d da76 923d e548 aebd
00000100: 5c0d f93d 423b 2abc 9231 d9bd f33d 183e
00000110: dc1d 15bc 6f49 debd 2cc5 b53c 75d1 00be
00000120: 503f c03d 086c 993d f62f b1bc 483e e23d
00000130: 9577 f1bd 7a70 9e3d 8619 f53c 9d3a e73c
00000140: 6d37 443e 99a2 913d a02e 49bd 463c 3abe
00000150: 61c4 b1bb 90db 0f3e 0d38 123e 5737 5a3e
00000160: ed2b 24be b670 de3d 9442 e83d a1b1 f6bd
00000170: 0cba b43c cba7 89bd 8bdd 2d3d 2c7b 0fbe
00000180: e27d dc3d dee4 1d3e 582c abbd 9b5f 6c3d
00000190: 8257 3a3e 3834 36be bc1f 81bd ecd5 f3bd
000001a0: b720 c53d a552 57bd 4aa5 5e3d 4f23 b2bd
000001b0: 073f ccbc 2e85 2d3e 325e 903d 5ebc b0bb
000001c0: 49d1 f7bd 32e8 90bd 3c00 803d e969 4c3e
000001d0: 7bb1 3c3d bc7d 653d 24c0 2bbe 481f 56bd
000001e0: 587c 4ebe dc1f 883d b3f4 55bd 1a81 3dbd
000001f0: 73a0 adbc 4b5a 0fbe 2462 c2bd 2f66 17be
00000200: 65aa 42be e665 d4bc e196 a2bd 7fa3 f23d
00000210: 791c 253e e814 9cbd 682b f03d a517 07be
00000220: 88f6 41bc 2040 0f3e 6ef5 e03d b8da bfbd
00000230: e0b5 84bd d0c4 99bc e3d4 75bd 7030 853d
00000240: 00f8 f3bd 860a 0dbd a37e 05be 8e23 ad3c
00000250: 5e84 c73d 34fc 7b3d f055 01bd 1f7e 303c
00000260: ce27 3c3d 9896 1abd 6d01 c3bd a230 653e
00000270: 102c 953d e0d7 d53d 3fea 2e3e a280 09be
00000280: bb72 32bd 18b9 9a3b ba0e 9fbc 3f1e 283e
00000290: 8d0c bb3b 76a6 c9bc d130 fe3d 460e fc3d
000002a0: f312 3b3e e1c7 15be 9e41 123e 9b84 e03d
000002b0: f06d f13c 29e4 ae3d 85a5 a73d 6535 133e
000002c0: daa1 163e 499c 06be 5ae7 d53c 0dc3 603d
000002d0: 7094 bcbd ec3f bdbd 9d9f 08bd 2c56 c03c
000002e0: 7278 a2bd 9d40 a0bd 8657 a8bc 1a56 153e
000002f0: 90a0 f8bd 6fbd 01be bccd 1bbe 648a 06be
00000300: 6b13 913c 2327 29be a149 aebd 7626 21bd
00000310: 3c30 333e c6c1 7e3d b8b9 8fbd 9b5d 9dbd
00000320: 7f1f 633d 2aab 423e 0478 04bd 8544 1bbe
00000330: e327 07be 520a 1e3d 6849 b6bd 3265 2c3e
00000340: e49a 83bd 0520 fbbd fd71 0ebe 9884 a83d
00000350: 4921 ad3d 98e5 203d 889d bf3c 6947 babd
00000360: 5bde 34be 9ca5 ce3d 6125 05be 1618 0fbe
00000370: d632 fdbd 754d 643e fea2 c03c 0f0d 5bbe
00000380: 37b0 d63c 1cfc d43d 0ee6 1f3e 8f35 95bc
00000390: c7e5 acbb d085 393e e245 adbd 2f4f 4c3e
000003a0: cbae a2bd 4eb3 27be e8ef 54bd c193 c93c
000003b0: 9eb8 5b3d 2eea 313e 2ad1 f23d 4595 1e3e
000003c0: bcca f03d 3a26 b2bd 794d 7c3c 087a 243e
000003d0: a358 90bd 8519 82bc 8186 6ebd 0917 283e
000003e0: cd6e 233e 1b17 10be c953 083e 8d7e cebd
000003f0: 72e0 873d 523a 06be 0626 38be bedf fdbb
0.14530271 -0.08383944 -0.044301312 -0.14016433 -0.07598807 0.014313958 -0.15305148 -0.06642536
0.1448419 -0.123322114 -0.010265774 0.032236688 0.15936033 -0.017124616 -0.04203211 -0.047229823
0.021349581 0.1390841 -0.17288963 0.08625631 -0.049862448 -0.09123569 -0.01673772 -0.16041711
0.18801895 0.15920284 0.17230217 0.0875317 0.034235965 -0.2182114 0.11828776 0.09479161
-0.10017546 -0.17852154 0.06889255 -0.03492699 0.15147567 0.14829189 -0.029020868 -0.12222544
0.116497 0.058213107 0.09717086 0.04522624 0.17685212 0.05003777 0.048929736 0.14450772
0.15852283 0.12571104 -0.13988295 0.07262384 -0.052444033 0.13221176 0.17347863 0.06804405
-0.100908525 0.026186058 0.018987164 0.0838523 0.11141191 0.100361116 0.071515754 -0.08509997
0.12160751 -0.010390105 -0.10605158 0.14867382 -0.009101357 -0.1085385 0.022188745 -0.12579902
0.09387076 0.074913085 -0.021629315 0.110470355 -0.117903866 0.07736297 0.029919397 0.028226191
0.19161768 0.07111091 -0.04911673 -0.18187055 -0.0054250215 0.140486 0.14279194 0.21310173
-0.16032381 0.10861342 0.11340824 -0.12045599 0.02206137 -0.06721457 0.042447608 -0.1401183
0.10766198 0.15419337 -0.08358067 0.057708364 0.18197444 -0.17793357 -0.06304881 -0.11906037
0.096253805 -0.05256905 0.05435685 -0.08698141 -0.024932398 0.16945335 0.07049216 -0.005393549
-0.12100465 -0.07075538 0.06250045 0.19962277 0.046067696 0.056028113 -0.16772515 -0.052275926
-0.20164621 0.06646702 -0.052235316 -0.0462657 -0.021194672 -0.13999288 -0.09491375 -0.14785074
-0.19010313 -0.025927495 -0.07938934 0.11847591 0.16124143 -0.07621175 0.11727029 -0.13192613
-0.011838563 0.13989305 0.10984312 -0.09367889 -0.064800024 -0.018770605 -0.060017478 0.06503379
-0.119125366 -0.034433864 -0.1303659 0.021135118 0.09742044 0.061519817 -0.031576097 0.010772257
0.0459364 -0.037741274 -0.09521756 0.22381833 0.07283795 0.104415655 0.17081545 -0.13427976
-0.043566447 0.004721772 -0.019416202 0.16417788 0.0057082833 -0.024615508 0.12411655 0.1230741
0.18268947 -0.14627029 0.14282843 0.109627925 0.029471368 0.08539612 0.08185867 0.14375837
0.14710179 -0.13145556 0.026111294 0.054873515 -0.09208 -0.09240708 -0.033355344 0.02347859
-0.07933129 -0.07824824 -0.020549547 0.14583626 -0.1214 -0.1266992 -0.152152 -0.1313873
0.017709455 -0.16518836 -0.08510137 -0.03934332 0.17498869 0.062196516 -0.07017845 -0.076838695
0.05544996 0.19010606 -0.03234102 -0.15162857 -0.1319881 0.03858406 -0.0890072 0.16835478
-0.064260274 -0.122619666 -0.1391067 0.08228415 0.08453614 0.039281458 0.023390546 -0.09095652
-0.17662947 0.10090181 -0.1300254 -0.13974032 -0.12363212 0.22295173 0.02351522 -0.213917
0.026207073 0.103996485 0.15615103 -0.018214015 -0.005276415 0.18117452 -0.08460595 0.19952081
-0.07943495 -0.16376993 -0.051986605 0.024606587 0.05364286 0.17374489 0.11856301 0.1548663
0.117574185 -0.086986974 0.01539933 0.16062176 -0.07048156 -0.01588131 -0.05823374 0.16415037
0.15960236 -0.14071314 0.13313212 -0.100827314 0.066346064 -0.13108185 -0.17983255 -0.0077476194

3.bias f4 [30]
00000000: 9420 98bd c9a4 02bd a276 0ebe efe4 c33d
00000010: dd1d 38bd 3787 213e 7405 853d 431b 08be
00000020: 881e 443d 862c cebd 9848 a2bd bd60 56be
00000030: bb05 1a3e 54b3 b23d e0e4 863d 8630 18bd
00000040: 0b64 1ebe f11b 22be 8898 21bd 834f b13d
00000050: 9e56 993d a243 33bd fb93 dbbc 6d06 2dbe
00000060: 41a0 b6bd ecbb 5d3d 575f 03be d1a8 1ebe
00000070: 1ff8 ca3d e2e8 b3bd
-0.07428089 -0.031895433 -0.13912442 0.0956515 -0.044950355 0.15774237 0.06495181 -0.1329165
0.04788068 -0.10067086 -0.079240024 -0.2093534 0.15041249 0.087256104 0.06586623 -0.03715565
-0.15467851 -0.15830971 -0.039452106 0.08657744 0.07487224 -0.04376567 -0.026803961 -0.16896982
-0.08917285 0.054134294 -0.12829338 -0.15494086 0.099106066 -0.08784653

5.weight f4 [30]
00000000: 18ed 803f 46b3 803f c134 7c3f 28aa 823f
00000010: 36fc 793f 7ee0 7f3f 5389 833f b1f8 833f
00000020: d2c5 803f 71f6 803f d48a 7c3f e485 7f3f
00000030: b5b9 7c3f 8845 813f 65a6 813f 789f 793f
00000040: 6f7e 813f 8e84 803f 333a 7c3f 6304 7d3f
00000050: c6a2 813f 641e 833f 957c 7b3f cdae 7e3f
00000060: 0dca 803f 604c 793f 0c30 7d3f 2c64 803f
00000070: 3710 7b3f 2b93 7c3f
1.0072355 1.005471 0.98517996 1.0208178 0.9765047 0.9995192 1.0276283 1.031027
1.006037 1.0075208 0.98649335 0.99813676 0.98720866 1.0099344 1.0128905 0.97508955
1.011671 1.0040452 0.98526305 0.9883482 1.01278 1.024365 0.9823697 0.99485475
1.0061661 0.97382164 0.9890144 1.003057 0.98071617 0.9866206

5.bias f4 [30]
00000000: 2ba3 70bc ba00 30bb db56 ff3a 5e85 643b
00000010: a52a e6bb 6cb2 5a3c d6db 053c 9ab9 183b
00000020: 8fae 513c c15d 7c3c c2cf 5c3c 7a3f 8f3c
00000030: b332 b4bc 996d 0e3b 351f 9abc 9a38 483b
00000040: 3cee 453c e659 163d e165 60ba 714c 913b
00000050: 6cf6 e8ba 9274 abbc 004c 243c d38a 383c
00000060: 16c1 15ba a3d2 1f39 c9f7 3d3c 0f09 f2ba
00000070: 55e9 c1bc a590 b53c
-0.01468734 -0.0026855902 0.0019480841 0.0034869532 -0.0070241266 0.013348203 0.008170089 0.0023303987
0.012797966 0.015403212 0.013477268 0.017486323 -0.021996832 0.0021732806 -0.018813709 0.0030551315
0.012080725 0.036706828 -0.0008560103 0.0044341614 -0.0017773635 -0.020929608 0.010027885 0.011263567
-0.0005712671 0.0001524189 0.011594721 -0.0018465834 -0.023670832 0.022163698

5.running_mean f4 [30]
00000000: cd89 323e e007 2d3e 6c6b 733e 5630 613e
00000010: 4038 a43e b88f 853e 37f4 463e d06e ed3d
00000020: 5bf8 d13d c901 8d3e 8b71 c33d a0e2 342f
00000030: 6602 e43e 7464 673e 9105 9e3e b392 943e
00000040: 06eb 4e3e 03c3 083e 14a4 083e 58ce 683e
00000050: 8528 413e b349 ea3d c661 7f3e a2ed e83d
00000060: 9908 db3d 7a95 fd3d 98e2 7e3e 2ba6 9d3d
00000070: c29f 913e cd4e f13c
0.1743538 0.16897535 0.23771447 0.21991095 0.32074165 0.2608621 0.19429098 0.115934014
0.10252448 0.27540424 0.09543141 1.6451418e-10 0.4453308 0.22596914 0.30863622 0.29018173
0.20206842 0.13355641 0.13343841 0.22734964 0.18863113 0.11439838 0.24939641 0.1137345
0.10694999 0.12382026 0.24891126 0.0769771 0.28442198 0.02945652

5.running_var f4 [30]
00000000: eb8e 9f3d 01ea cb3e 6add 203e f112 fe3d
00000010: c1e6 a43d f543 ca3e ee61 2d3d dccb 4a3d
00000020: 58b2 d23d 5829 7b3e 2261 103e 73e3 3f2c
00000030: f3cd 293e 0de7 103d 2e2d 6e3e 31f0 783e
00000040: 3be4 5b3e 6f5b 4f3e 9f0e 7d3d 9ccc 373e
00000050: 304e dc3d 3a78 013c e0f2 8d3e 3652 3f3d
00000060: f667 1f3e 7329 b63c 13c9 443e fa91 013e
00000070: dd8b 673d bd6d 653c
0.07790931 0.39826968 0.15709463 0.124059565 0.08051825 0.39504972 0.04232972 0.04951082
0.102879226 0.2452749 0.14099553 2.7268992e-12 0.1658247 0.035376597 0.23259422 0.24310376
0.21473782 0.20249723 0.061781522 0.17949146 0.107571006 0.007902199 0.2772436 0.04670926
0.15567002 0.022236561 0.19217329 0.12653342 0.05652987 0.014003214

6.weight f4 [30, 30]
00000000: 7c89 02be 6d8c 203e 435a 113e 02eb 99bd
00000010: bdbf 11be 2f6a 1bbe 55f7 b6bd d796 393d
00000020: fe49 353d 6abb cb3d e087 32bd c3fb a5bd
00000030: 8b38 ba3d e8b8 423d 2beb e8bd 23f7 0fbe
00000040: 41d2 353e dc4e ac3d 37ab c5bc 1d8f 18be
00000050: e72e 3a3d 39cd f4bd 6941 f13d 769f c2bd
00000060: 8e2e 383e d6e1 d0bb aea5 69bd 592b 9c3d
00000070: af01 2bbe 1aa3 ccbd c72d e8bd 0918 2c3e
00000080: fcc2 a03d 552e 3fbe 3799 1c3e f830 ce3c
00000090: 1f2a 393e e202 ed3a a303 12be d45d 35be
000000a0: 2e23 563d 7513 5f3c 9fe6 6d3a add1 023e
000000b0: d523 283e b5f7 b63d 7b87 d03c 6a28 f53d
000000c0: 0724 853d 0e88 573d 56e5 1bbe 18b8 3e3c
000000d0: 320a 9cbd fcbc 10be f87d 08be 2e27 e5bc
000000e0: b2fe 373e 455a b33d 48a8 77bd 00c2 a4bd
000000f0: e472 d7bc 126f 1dbe 8bd7 b6bd a0c3 023e
00000100: 4451 35bd f56c ddbd 082a 1cbe 8086 043e
00000110: 2427 ecbd 002c 8dbd 216e 89bd 2cd2 38bd
00000120: 206c 8fbc 501a 6cbd 1d15 11bd c0e3 0a3e
00000130: 2e5a 28be 2f40 e6bd 4866 33be 4339 0c3e
00000140: 15cb e63d a97a e03d defd a13d 85de 02bd
00000150: 7845 04be e6a5 debd b7e9 b53d 6bbb 353e
00000160: b3f1 d5bc 7760 163e c92d 22be add1 443d
00000170: 5fac 793d 416f d3bd 450d 02be 7f17 223e
00000180: 6fa0 63be 7788 b23c d2b3 27be b6f3 c9bc
00000190: 2271 22bd 7379 0c3d b6b6 003d 763e ef3d
000001a0: f652 ae3c f3f5 27bd cb78 263e 0151 ddbb
000001b0: 632c 2ebe d4da b53d f168 13bd f610 40be
000001c0: 450d ec3d 45f8 043e 0997 073d ec78 ae3c
000001d0: ffb4 063e 07e5 0a3e b65f 90bd d162 41be
000001e0: d728 d4bd bd14 0dbe 84f4 77bd 7835 0fbd
000001f0: 5491 ec3d 9553 3abd 0918 1abe 0429 813d
00000200: af23 f8bd f9f6 15be b2a9 ec3a 54f7 12bd
00000210: f875 6bbd 3a02 2e3e 9b15 82bd 9d54 9c3d
00000220: 32c5 e03d 9996 fe3d 9ef0 3cbe 8e23 a63d
00000230: fa5f debd 7217 41be 2793 343e 9041 1e3e
00000240: 6454 093e 459a e83d f5ef 693c 5bee a9bd
00000250: f579 c6bd beaa 483a 55fd 7d3d cc90 c43d
00000260: 2785 8bbd 3263 123d 2a07 14be 6905 5bbe
00000270: c317 4d3d d374 c6bd 72b7 25bd 1a58 d8bc
00000280: a258 18bd 29f9 2c3c 25f2 1b3e fab7 313d
00000290: 3578 0e3d 966f 8d3d eeb0 1cbe d6ae cf3d
000002a0: 5273 9d3d d34a 19be 5b22 19be 59d1 08be
000002b0: 3725 173d 2c17 ec3c 7832 ee3d a41a b2bd
000002c0: 0a46 583d 1902 22be 080e 13bd 5262 23b9
000002d0: f577 a7bd cde1 05be f0a5 15bd e329 abbd
000002e0: 6e6e f33d 2eed 9bbc 508e 40be 43f9 b1bd
000002f0: 9ed1 bd3d 051e 393e afae 903d c033 5ebd
00000300: 1ab6 23be 2391 fd3d dfa3 d0bb 96e6 263e
00000310: f30c cbbd 241b 143d 16a8 51bc f837 423d
00000320: 8a62 823d db0b 003d 9c15 333e 3e03 56bb
00000330: ccda 153e cc9b 5ebd 299e 06be 933c 1e3e
00000340: 7a5d 173e 6787 8d3d 8b17 78bd fcab 313e
00000350: 196f fd3d 7e4e 1bbc 397d 993d d593 95bc
00000360: 710a f73d ba65 cc3d bd8d 473d 0b8c f8bd
00000370: 8b59 3e3e e5c5 1cbe d841 13be bcc4 bdbb
00000380: eab7 243e 9431 b6bb 10a3 ea3d 7e93 33bd
00000390: f8bd 4cbd a37e cd3d 1a61 143e 80c3 2c3e
000003a0: c591 1bbd d597 c53d 34e1 673d 9f33 2c3d
000003b0: d280 87bc 480e 423e ab07 0e3d 1b28 453e
000003c0: 86aa 133d ebce c5bd e64c bb3d d2f1 23bd
000003d0: 966e 22be 2ff7 2a3e 46a3 853d 2a1b 133e
000003e0: da10 09be 4ec4 0d3e 85c4 403e 2a00 f13d
000003f0: 25c4 31be 4e4b b23d 8b9c 0c3a 72d6 2dbe
-0.12747759 0.15678568 0.14194588 -0.07515527 -0.14233299 -0.15177225 -0.089338936 0.045309868
0.044260018 0.09947856 -0.04358661 -0.0810466 0.09092816 0.04753962 -0.1137298 -0.14059119
0.17755987 0.08413479 -0.024129493 -0.14898343 0.045454886 -0.119532056 0.11780054 -0.09503071
0.17986509 -0.006374578 -0.05704277 0.076254554 -0.16699861 -0.09992047 -0.11336856 0.16806044
0.0784969 -0.18670018 0.15292822 0.025169834 0.18082474 0.0018082524 -0.142592 -0.17711574
0.052279644 0.013615479 0.0009075198 0.12775297 0.16419919 0.08933965 0.025455227 0.11970599
0.06501012 0.052619986 -0.15224203 0.011640571 -0.07619132 -0.14134592 -0.13329303 -0.027972784
0.17968252 0.08757452 -0.06046322 -0.08044815 -0.026299901 -0.15374401 -0.0892783 0.12769938
-0.044266954 -0.108117975 -0.15250409 0.12941933 -0.11530903 -0.06893158 -0.067104585 -0.04512231
-0.017507613 -0.05764228 -0.035420526 0.13563442 -0.16440651 -0.11242711 -0.17519486 0.13693719
0.112692036 0.109608956 0.079097494 -0.031950492 -0.12917125 -0.10871486 0.08882468 0.17747276
-0.026116228 0.14685236 -0.15837778 0.048051525 0.0609554 -0.103239544 -0.12700374 0.15829276
-0.2222917 0.021793587 -0.1637719 -0.024652343 -0.039658673 0.03429551 0.031424247 0.11681835
0.021279793 -0.04100604 0.16257016 -0.006754041 -0.1700912 0.08879629 -0.03598875 -0.1875647
0.115259685 0.12985332 0.033103023 0.021297894 0.13154982 0.1356393 -0.070495054 -0.18885352
-0.10359352 -0.13777442 -0.060535923 -0.0349631 0.11551157 -0.045489866 -0.15048231 0.06306651
-0.12116181 -0.14644994 0.0018055944 -0.0358804 -0.05748555 0.16993037 -0.06351777 0.07633326
0.10975112 0.12431068 -0.18451163 0.0811225 -0.1085815 -0.188566 0.17634259 0.15454698
0.13411099 0.113575496 0.014278402 -0.08297416 -0.0969123 0.0007654837 0.062009174 0.0959793
-0.06812506 0.03573913 -0.14455858 -0.21388783 0.05007149 -0.09690251 -0.04045815 -0.026409198
-0.0371939 0.010557451 0.1522909 0.043388344 0.034782607 0.06906049 -0.15301868 0.10140769
0.07688011 -0.1496995 -0.14954512 -0.1336111 0.036900725 0.028819643 0.1163072 -0.086964875
0.05280117 -0.15821113 -0.035902053 -0.00015581519 -0.08177177 -0.13074417 -0.036535203 -0.08357599
0.11886297 -0.019033995 -0.18804288 -0.08690121 0.09268497 0.18077858 0.07064568 -0.05424857
-0.15987435 0.12381198 -0.006367191 0.16298899 -0.09914579 0.036158696 -0.0127964225 0.047416657
0.06366451 0.031261306 0.17488712 -0.003265574 0.14634246 -0.0543478 -0.13146271 0.15452795
0.14781752 0.069105916 -0.060569327 0.17350763 0.12374706 -0.009479163 0.074945875 -0.018258968
0.120625384 0.0998034 0.048719157 -0.12136086 0.18588845 -0.15309866 -0.14380586 -0.005791275
0.16085783 -0.0055601094 0.11456883 -0.04384183 -0.049985856 0.1003392 0.14490166 0.16871452
-0.037980814 0.096481 0.056611255 0.042041417 -0.016540918 0.1895076 0.03467528 0.1925358
0.036051296 -0.09658607 0.091455266 -0.04002554 -0.15862498 0.16695856 0.065252826 0.14365831
-0.13385335 0.13844416 0.18824966 0.117676094 -0.1735998 0.087057695 0.0005363903 -0.16976336

6.bias f4 [30]
00000000: c651 d43c bd7f 063b ab2c 64bd 8bdb 263e
00000010: 22d2 0ebd fddd 193e 25b7 85bc 8653 973d
00000020: 1cc9 4f3e 2be5 a23c 4efe f23d 0ad0 b93d
00000030: f0bc a2bd 3dae 173e 64d4 d0bd cf6b 4a3e
00000040: 3e20 013e d9fe 7bba a85c 9b3d 1aef 6fbd
00000050: f51c 323e ffaf 86bd 6ec1 26bd ac57 d1bc
00000060: af11 ddbc 98b8 8bbe 37cf 573c 4570 cf3d
00000070: 9f28 dbbd 1fd4 073d
0.025917899 0.0020522915 -0.05570666 0.16294686 -0.034868367 0.15026088 -0.016322682 0.07388978
0.20291561 0.019884666 0.11864911 0.090728834 -0.07946193 0.1481256 -0.1019676 0.19767688
0.12609956 -0.00096128654 0.07586032 -0.058577634 0.17393859 -0.06576537 -0.040711813 -0.0255545
-0.026985971 -0.2728927 0.013171962 0.101288356 -0.10701107 0.03316128

8.weight f4 [30]
00000000: b69f 7d3f 1f94 803f 4022 7d3f 8a66 7f3f
00000010: 092a 7c3f efd6 803f 9e7b 7d3f 2865 7c3f
00000020: c415 713f 9e59 6d3f 2ef6 803f ab32 783f
00000030: 704e 7e3f bf21 7a3f 481e 7a3f 16ee 713f
00000040: ebb9 7b3f 7a6d 813f 3daf 7e3f 0e17 7e3f
00000050: 83e4 6e3f abc4 7c3f 101b 793f 236f 7d3f
00000060: 0a46 783f abe0 703f 0f83 753f 0408 803f
00000070: 78a6 803f 0a4a 7c3f
0.99071825 1.0045203 0.98880386 0.9976584 0.9850164 1.0065593 0.9901675 0.9859185
0.94173837 0.9271487 1.0075128 0.96952313 0.99338436 0.9770774 0.97702456 0.94503915
0.98330563 1.0111535 0.9948614 0.9925393 0.9331743 0.9873759 0.9730692 0.98997706
0.9698187 0.94092816 0.95903105 1.0002446 1.0050802 0.98550475

8.bias f4 [30]
00000000: 6c50 d73d 7cd2 ef3d ebd0 823d 3917 dc3e
00000010: ef23 063e c1df 8fbd 446e 8cbd 02dc 983e
00000020: 7f2f 0bbf 0670 2dbf f256 b2bc 09c8 f6bd
00000030: 6f7d 753e 4a76 543e f388 f9bc b118 ddbe
00000040: 0512 df3e 6047 563d beab 623e 617e a1bc
00000050: 9c43 0cbf 3b03 e6bd aeee b13e ea6c dc3b
00000060: 5705 fa3c d7c5 bfbe 7708 2ebe e13e 953e
00000070: 3c18 383e 1a8d 63be
0.10513386 0.117100686 0.06387504 0.42986467 0.13099645 -0.070250995 -0.06856969 0.29855353
-0.5436935 -0.6774906 -0.021769974 -0.120498724 0.2397363 0.20748249 -0.03046081 -0.431829
0.43568435 0.052314162 0.22135827 -0.019713582 -0.54790664 -0.11231085 0.3475241 0.0067268508
0.030520124 -0.37455627 -0.16995417 0.29149535 0.17977995 -0.22221795

8.running_mean f4 [30]
00000000: d557 3a3e 3766 0f3e 4af4 9f3d e9ef 8e3e
00000010: 4915 2e3e b0fb 623e ab8d 443e a07b 693e
00000020: f562 a43e 6472 773e 6245 a13e afcb 2d3e
00000030: 2954 d63d 427b a73e 0327 973e 91e9 e53e
00000040: d483 5c3e 7ecd 1a3e 707e b63e 192b e33d
00000050: 1fa9 8a3e fc98 833e f8e3 923e 4eeb d83d
00000060: 3fc4 9e3e f5a2 763e 2c3b e73d c082 353e
00000070: 4b63 3e3e 49e3 5b3e
0.18197568 0.14003836 0.07810266 0.27917412 0.17000307 0.22166324 0.19194667 0.22801065
0.32106748 0.2416473 0.31498247 0.1697223 0.10465271 0.32711226 0.2952195 0.4490476
0.21534663 0.15117452 0.3564334 0.110922046 0.27082154 0.25702655 0.2868955 0.10591756
0.310091 0.240856 0.11290583 0.17725658 0.18592565 0.21473421

8.running_var f4 [30]
00000000: d651 bb3e bf64 af3d 889b af3d 416e 173f
00000010: 13f7 a13d fa5b 873d 56c4 b73d 7959 0e3f
00000020: 1af8 0d3f d8be 3e3f 6081 843e b243 ce3e
00000030: 96b5 5b3c 70d0 e93d 8153 353d ec33 043f
00000040: 46f5 093e acad eb3c 3523 ce3e 7f27 723d
00000050: 57cf 6d3f c82a 3a3e 193d 653e 1148 133e
00000060: 39fd 843d 9f19 473e 39da 273e 6e17 a93e
00000070: 0d4a 0f3f 71a4 2c3e
0.36585873 0.08564138 0.08574587 0.5915261 0.07908454 0.0660934 0.08972995 0.55605274
0.554567 0.74509954 0.25879955 0.40286022 0.013409993 0.114167094 0.04426909 0.51641726
0.1347247 0.028769337 0.40261236 0.059119698 0.928945 0.18180382 0.22386588 0.1438296
0.06493611 0.19443367 0.16391839 0.33025688 0.5597237 0.16859604

9.weight f4 [5, 30]
00000000: 9f3f 3a3e 4bec 26bd 4c6a b5bb 175a 9d3e
00000010: 725d 603e 0793 ea3d 8bed 00bd 9bb8 813e
00000020: c9fa 85be ca86 eabe 329c 113e ec85 afbd
00000030: 237b b43e f817 303e 6fbf 1bbe 7891 96be
00000040: 3274 c73e 0812 163e 2d24 1c3e 3128 b73d
00000050: 74d5 97be b997 56bd d6e5 733e bf42 883d
00000060: ac84 a23d 0137 89be 41a5 16bd 5435 7e3e
00000070: d456 883e 47e9 7abe 5bc8 3ebd e020 52be
00000080: dbdf 13be 7db0 c9be b1a2 453d 2c67 0e3e
00000090: ae08 2d3d 6a03 63be 36a6 c23e 228a da3e
000000a0: cbb4 213e 18ee 973c ff26 c1bd 14fd 40ba
000000b0: 36d3 08be 56e9 673e db5d 7cbe bca1 c8bd
000000c0: 093d 1abe 1c02 463d 8ca5 b93e 40c1 ad3d
000000d0: 6a85 85be 2c13 30bd 47f7 ac3d 5888 e63d
000000e0: 97fe 583d facd 70be ed72 c3bc 5e39 a23d
000000f0: beff 023d 200b 5d3e ebc2 b83b 2d2d 27bd
00000100: e5cd f43d d286 4bbd 8db8 573d 7065 39bd
00000110: d140 f9bd 6b19 71bd 31e5 8fbd 92f8 b83d
00000120: 8a1b 2cbd 6c11 8bbd 4419 c93a 48bc 95bd
00000130: ae53 723c 9425 f83d 3dcd 403e e147 163d
00000140: 0bd5 cd3c 2a16 cf3d 67c9 e73d c7be e33c
00000150: 4922 3c3d 3ec0 66bd 9edf d1bd 4100 64bc
00000160: 3a08 81bc dfdd bcbc 9f38 e73d 25f6 fcbd
00000170: 1f2c 83bd 4aa2 c43d a819 5ebd 21e4 723d
00000180: c4e2 b13d 21b3 b6bd 29d5 433e 862e d23d
00000190: 9190 7abc 02dd 1cbd ec41 273e 71e9 0fbe
000001a0: b6b9 6cbd 7153 743d 9583 b43d 37de 053d
000001b0: 9cff e5bd e17d fd3d d9a1 393e 7e64 7ebc
000001c0: 40de 34be 13cd 09bd 9fae d23d a07a 36bd
000001d0: 9fd1 d83d ec6a 743d 16e4 b5bd 1a2b edbd
000001e0: 26e2 153e fe71 fb3d 7d22 93bc 5ded 45be
000001f0: 2b7e 4a3d 5428 3fbd 2ddb 21be 4338 e63d
00000200: 0e6f 073e 0dc2 223c 7c1d d0bc 3049 d83d
00000210: 99e8 533d 4ef7 13be 9505 33bd 8675 98bd
00000220: 6d34 efbd 0672 0cbe 52e6 edbc ab9f cfbd
00000230: cc25 513d 3765 583c 3e83 9d3d c2f9 fb3d
00000240: 467e ca3d 7014 c43c 8e45 9d3c d422 bbbd
00000250: 8cbe 163d abc2 943c
0.18188332 -0.04075269 -0.005536353 0.30732796 0.21910647 0.114538245 -0.03147654 0.25336155
-0.26167896 -0.4580596 0.1421974 -0.085704654 0.35250196 0.17196643 -0.15209745 -0.2940786
0.38955837 0.14655316 0.15248175 0.08943213 -0.2965504 -0.052390788 0.23818144 0.06653356
0.079354614 -0.26799777 -0.036778692 0.2482503 0.26628745 -0.2450305 -0.046577793 -0.20520353
-0.14440863 -0.39392462 0.048250858 0.13906544 0.042244606 -0.22169271 0.38017434 0.42683512
0.15791623 0.01854615 -0.09431266 -0.00073619303 -0.1336182 0.22647604 -0.24645178 -0.097964734
-0.15062346 0.048341855 0.36259115 0.08484125 -0.2607835 -0.042987034 0.08445602 0.11256474
0.05297717 -0.23516074 -0.023858512 0.07921098 0.031982176 0.21586275 0.0056384704 -0.040814567
0.11953334 -0.04968912 0.052666236 -0.045262754 -0.12170566 -0.05886213 -0.07026137 0.09031786
-0.04201845 -0.06790432 0.0015342613 -0.073113024 0.014790459 0.121165425 0.18828292 0.036689643
0.025126 0.10111649 0.11317711 0.02780093 0.045931134 -0.05633568 -0.1024773 -0.013916076
-0.015750993 -0.023055015 0.112900965 -0.12351636 -0.064049 0.09601267 -0.054223686 0.059299592
0.0868583 -0.08920885 0.19124283 0.1026278 -0.015293256 -0.038296707 0.16333741 -0.14053895
-0.057794295 0.05964989 0.0881416 0.032682624 -0.11230394 0.12377525 0.18128146 -0.015526889
-0.17662907 -0.03364284 0.102872126 -0.044550538 0.10586857 0.05967228 -0.088813946 -0.115804866
0.1463705 0.12277602 -0.017960781 -0.19328828 0.04943673 -0.04666932 -0.15806265 0.112412
0.13225958 0.009933961 -0.025404684 0.105608344 0.051735494 -0.14449808 -0.043706495 -0.07444291
-0.11679921 -0.13715371 -0.02904049 -0.10137876 0.051061437 0.013207725 0.07691048 0.12303497
0.09887366 0.023935527 0.019198205 -0.09137502 0.036802813 0.018159231

9.bias f4 [5]
00000000: 92e7 cb3f 675b 61bf 8605 d53d 27c9 febe
00000010: 99ed b9be
1.5930045 -0.88030094 0.10401444 -0.49762842 -0.36314085
