FBIproject/fbiapp/script/model/pretrained_생리통.pt (torch, 17662 bytes, 20 tensors)

0.weight f4 [30, 5]
0	0x3e8ca6ef	0.2747111
1	0xbdc440b9	-0.09582657
2	0xbeb72ac3	-0.35774812
3	0xbed1b1ba	-0.40955907
4	0x3dd5da36	0.10442011
5	0xbeadba14	-0.3393103
6	0x3eed9104	0.463997
7	0x3d917d4b	0.07103976
8	0x3ee73430	0.45157003
9	0xbdd7adb3	-0.10531177
10	0xbee67ad2	-0.4501558
11	0x3d4b8f0c	0.049696967
12	0x3e5b220d	0.21399708
13	0x3e4b76a6	0.1986948
14	0xbd43cabc	-0.047800764
15	0x3e8eb9f0	0.27876234
16	0x3e195fce	0.14977953
17	0x3e7f090f	0.249058
18	0x3e60e33b	0.21961682
19	0x3db0b26c	0.08627781
20	0x3d8da6c3	0.06916573
21	0x3ea0c297	0.3139846
22	0xbe41eb35	-0.1893738
23	0x3ebed5ab	0.3727239
24	0xbea01ce0	-0.3127203
25	0xbd9c858a	-0.07642658
26	0x3e02c7c5	0.12771519
27	0x3e4958d7	0.19662796
28	0xbe4b73eb	-0.19868438
29	0xbe430a6f	-0.19046949
30	0x3e2e1667	0.17000733
31	0xbe501835	-0.20321734
32	0x3edfcb43	0.43709764
33	0xbe0d1c84	-0.13780409
34	0x3ce9dc54	0.028547443
35	0x3d87ab69	0.06624491
36	0x3dee51a4	0.116366655
37	0xbebe9659	-0.3722408
38	0x3de838de	0.113389716
39	0xbdf8c424	-0.12146786
40	0xbd54beb9	-0.0519397
41	0x3ead23d8	0.3381641
42	0x3ea97c9d	0.33102885
43	0xbea5c223	-0.32374677
44	0x3e1b298e	0.1515257
45	0xbeaea9a0	-0.3411379
46	0x3d388365	0.045047183
47	0xbd1549d6	-0.03644737
48	0x3e98435b	0.29738888
49	0xbd20d4bd	-0.039265383
50	0xbe2ab197	-0.16669308
51	0xbe3abbd6	-0.18235716
52	0xbcff30a0	-0.031151116
53	0xbe06ed70	-0.13176513
54	0xbeaa5946	-0.33271235
55	0x3e48ee90	0.19622254
56	0x3da58898	0.08082694
57	0xbd170285	-0.036867637
58	0x3ed26159	0.41089895
59	0xbdb28fdc	-0.08718845
60	0x3eb6e749	0.35723332
61	0x3deb32b8	0.11484283
62	0xbed732b9	-0.42030886
63	0x3d6996b7	0.0570285
64	0x3e5f135a	0.21784726
65	0x3d5bcd29	0.053662453
66	0xbcb31021	-0.021858277
67	0xbee01360	-0.43764782
68	0x3ee7829a	0.4521683
69	0xbea9ac82	-0.33139426
70	0x3e55a3f4	0.20863324
71	0xbd98070e	-0.074232206
72	0x3eae663f	0.34062383
73	0xbe8fcc43	-0.28085527
74	0xbec849a7	-0.39118692
75	0xbe742a84	-0.23844343
76	0x3ed8a734	0.42315066
77	0x3d39ae9c	0.045332536
78	0x3e01746b	0.12642066
79	0xbe859f5e	-0.2609815
80	0x3d84ba51	0.064808495
81	0xbde4d090	-0.11172593
82	0x3e81e4aa	0.2536977
83	0x3e63ad31	0.22234036
84	0xbe863712	-0.2621389
85	0xbd82c576	-0.06385319
86	0xbec3ba12	-0.38227898
87	0xbecdb886	-0.40179843
88	0xbeca1adc	-0.39473617
89	0x3e923051	0.28552487
90	0x3ec71c6d	0.38888875
91	0xbec89d4c	-0.39182508
92	0xbeb67b7b	-0.35641083
93	0x3c78f788	0.015195735
94	0x3dcdfe3e	0.100582585
95	0xbea7250c	-0.32645452
96	0xbe702099	-0.23449935
97	0x3ea12791	0.314755
98	0xbec760af	-0.3894095
99	0x3e08a782	0.13345149
100	0xbe9143fe	-0.28372186
101	0x3ea853f6	0.32876557
102	0x3e31e4ba	0.17372409
103	0xbe1ef29f	-0.1552224
104	0x3dee0843	0.116226695
105	0xbe6c5062	-0.23077539
106	0x3eb5994c	0.3546852
107	0xbce83ef2	-0.028350327
108	0x3ccc070d	0.024905706
109	0x3e81face	0.2538666
110	0xbe0636ff	-0.13106917
111	0x3e92d026	0.2867443
112	0x3ea013a6	0.3126499
113	0x3ee341fc	0.4438628
114	0xbcfd04f2	-0.030886147
115	0xbe61e3af	-0.2205951
116	0x3ddb5872	0.10710229
117	0xbdd90212	-0.10596098
118	0xbe21d30d	-0.15803166
119	0x3db7d592	0.08976282
120	0xbe1faaa3	-0.15592436
121	0xbed3d35a	-0.41372186
122	0x3e5f365d	0.21798082
123	0x3cdb2fdb	0.026756218
124	0xbe063666	-0.13106689
125	0x3cc652b4	0.024209358
126	0x3ee0e7c6	0.4392683
127	0x3db94c19	0.090477176
128	0xbd25aab7	-0.04044601
129	0xbb99bf87	-0.0046920213
130	0xbe39f0c2	-0.18158248
131	0xbe91a039	-0.28442553
132	0xbe3e8cb0	-0.18608356
133	0xbe21347b	-0.15742676
134	0xbe647649	-0.22310747
135	0x3e6fe006	0.23425302
136	0xbee3f659	-0.44523886
137	0x3eb6f06c	0.35730302
138	0x3e20391f	0.1564679
139	0xbe1a1f4a	-0.15050998
140	0x3dc8e9c8	0.09810215
141	0x3e121e40	0.14269352
142	0xbededdc3	-0.43528566
143	0xbe828e50	-0.254992
144	0xbd57bc19	-0.05266962
145	0xbdee05f9	-0.11622233
146	0xbf2818d6	-0.65662897
147	0x3c16cc9d	0.009204057
148	0xbcc93fc0	-0.024566531
149	0xbcff27f8	-0.031146988

0.bias f4 [30]
0	0xbe0f0164	-0.13965374
1	0x3e4b8e84	0.19878584
2	0xbee16566	-0.44022673
3	0x3eb26107	0.3483965
4	0x3ee39b0f	0.44454238
5	0x3ebd9639	0.37028673
6	0x3eb9f304	0.3631822
7	0xbe2ddd54	-0.16978961
8	0xbed3b9b0	-0.41352606
9	0xbe4a6fb1	-0.1976917
10	0xbd067ca0	-0.032833695
11	0x3e93a795	0.28838792
12	0xbe96fdc7	-0.29490492
13	0x3e053416	0.1300815
14	0x3e427226	0.18988857
15	0x3d73ed13	0.059552263
16	0x3e9e36c5	0.3090116
17	0x3ecd02ae	0.40041107
18	0xbc4ca8c9	-0.012491413
19	0x3ee0f3a5	0.43935886
20	0xbdb3846c	-0.08765492
21	0x3e055c18	0.13023412
22	0xbeb7573f	-0.3580875
23	0x3e316297	0.17322765
24	0x3cfcf651	0.030879172
25	0x3ee00378	0.43752646
26	0xbe36b8cb	-0.1784393
27	0x3ebf0096	0.37305135
28	0xbe35e411	-0.17762782
29	0x3e3bf01a	0.1835331

2.weight f4 [30]
0	0x3f7bfe9d	0.98435384
1	0x3f7b90dd	0.9826792
2	0x3f8044d3	1.0021003
3	0x3f7b4ff0	0.9816885
4	0x3f8196ce	1.0124147
5	0x3f7aeeac	0.98020434
6	0x3f81ecf3	1.0150436
7	0x3f7fbf01	0.99900824
8	0x3f894c52	1.0726416
9	0x3f7a2637	0.9771456
10	0x3f800000	1.0
11	0x3f7f6010	0.99755955
12	0x3f7fa8db	0.9986703
13	0x3f83926e	1.0279062
14	0x3f80b025	1.0053755
15	0x3f7c50ea	0.98560965
16	0x3f80fd56	1.0077312
17	0x3f800000	1.0
18	0x3f7d5c2f	0.98968786
19	0x3f804d32	1.0023558
20	0x3f7f87cb	0.9981658
21	0x3f7dbc8d	0.9911583
22	0x3f818436	1.0118473
23	0x3f7b6e3f	0.982151
24	0x3f7ff404	0.99981713
25	0x3f836470	1.0265026
26	0x3f800000	1.0
27	0x3f8014bc	1.0006328
28	0x3f7cd980	0.9876938
29	0x3f802d3f	1.0013808

2.bias f4 [30]
0	0x3c8fd873	0.017559266
1	0x3bbab9b5	0.0056984075
2	0xbc1e707d	-0.009670374
3	0xbc573b9b	-0.01313677
4	0x3d1b3a76	0.03789755
5	0xbce07c3f	-0.027402995
6	0x38f9cce7	0.00011911411
7	0x3c339ff5	0.01096343
8	0xbc06e18a	-0.008232484
9	0xbc09367d	-0.008374807
10	0xbb2c4bf6	-0.0026290393
11	0xba4dff6f	-0.0007858192
12	0x3ceb5fd3	0.028732216
13	0x3d104d4f	0.035229977
14	0xbc6525a0	-0.013986021
15	0x3caae6a2	0.020861927
16	0x3b5d8015	0.0033798267
17	0x3c57de0a	0.013175497
18	0x3d1fa8fa	0.038979508
19	0xbc0da1ea	-0.00864456
20	0x3a68abdd	0.0008875707
21	0x3cb276a5	0.02178509
22	0x3c75147d	0.014958498
23	0x3d03e347	0.03219917
24	0x3d318b13	0.043345522
25	0x3cda1063	0.026619142
26	0xbb904280	-0.0044024587
27	0x3c29fdba	0.0103754345
28	0x3ca85dd3	0.020552551
29	0x3c75ed0a	0.015010128

2.running_mean f4 [30]
0	0x42167dc6	37.622826
1	0x41a36cee	20.428188
2	0x40c87f5a	6.265546
3	0x428bda61	69.92652
4	0x41f2f7a4	30.370918
5	0x401adf84	2.4198923
6	0x4203d3be	32.95678
7	0x4126ae4e	10.417555
8	0x4100f266	8.059179
9	0x4079455f	3.894859
10	0x00000000	0.0
11	0x42494ee3	50.327038
12	0x426a359e	58.55236
13	0x4139ea5d	11.619718
14	0x420d84ee	35.379814
15	0x413c980f	11.787124
16	0x41bc9696	23.573528
17	0x00000000	0.0
18	0x426879ef	58.119076
19	0x3c029cf1	0.007971988
20	0x40bd1619	5.9089475
21	0x40dc1304	6.8773212
22	0x41bd441f	23.658262
23	0x3e87d7b0	0.26531744
24	0x3bddb7fa	0.0067663165
25	0x41b25ae9	22.29439
26	0x00000000	0.0
27	0x422fe0c4	43.969498
28	0x413f1ad2	11.944048
29	0x0217c4bd	1.1150189e-37

2.running_var f4 [30]
0	0x45852d7d	4261.686
1	0x43bab987	373.44943
2	0x41f7f836	30.996197
3	0x45b9f9ed	5951.2407
4	0x4410793e	577.8944
5	0x41d2af21	26.335512
6	0x450460af	2118.0427
7	0x4390307c	288.37878
8	0x4323c4dd	163.769
9	0x41842cd2	16.521885
10	0x00000004	6e-45
11	0x453cdb21	3021.6956
12	0x4613086b	9410.1045
13	0x43a3b9ce	327.4516
14	0x45492a92	3218.6606
15	0x4352dc57	210.8607
16	0x43bb9b64	375.214
17	0x00000004	6e-45
18	0x4618e4c1	9785.188
19	0x3e0e8b7c	0.13920397
20	0x42f301c8	121.50348
21	0x42f2a13d	121.31492
22	0x43a584a6	331.03632
23	0x4052abc4	3.2917337
24	0x3dcd605f	0.10028147
25	0x4398b385	305.4025
26	0x00000004	6e-45
27	0x457bb704	4027.4385
28	0x43d26df0	420.8589
29	0x04c68549	4.667198e-36

3.weight f4 [30, 30]
0	0xbd98c079	-0.07458586
1	0xbd3128ef	-0.043251928
2	0x3e41965f	0.18905018
3	0xbe25781e	-0.16159102
4	0x3e211632	0.15731123
5	0x3d08b55d	0.033376087
6	0x3e1100be	0.1416044
7	0x3de8b5fd	0.113628365
8	0x3e0ab7a2	0.13546613
9	0x3e163013	0.14666776
10	0x3e13cec5	0.14434345
11	0x3ca1d816	0.019756358
12	0xbd8f2697	-0.06989782
13	0x3e3181b7	0.17334639
14	0xbd738989	-0.059457336
15	0x3e052943	0.13004021
16	0xbdf4730a	-0.119360045
17	0xbe0d993c	-0.13827986
18	0xbd7d0828	-0.061775357
19	0xbe389103	-0.18024068
20	0xbc853fc1	-0.016265752
21	0x3da9b49b	0.08286401
22	0x3e00b87d	0.12570377
23	0x3df50e24	0.11965588
24	0x3cc2ca00	0.023777962
25	0xbe190703	-0.14944081
26	0x3e17aad9	0.14811267
27	0xbe06c2b2	-0.13160208
28	0xbd49e0ae	-0.049286537
29	0xbdb0bb80	-0.08629513
30	0x3a3562ad	0.0006919306
31	0x3e022ab6	0.12711605
32	0x3dac786f	0.084214084
33	0xbc000c7b	-0.007815476
34	0x3dacada0	0.08431554
35	0x3d39a673	0.045324754
36	0x3e2de3d7	0.16981445
37	0xbd72669c	-0.059179887
38	0x3dea41e8	0.11438352
39	0x3c7fe3da	0.015618289
40	0xbdac25e3	-0.08405664
41	0x3dc9f445	0.09861044
42	0xbd8c8651	-0.06861556
43	0x3c6f5fa5	0.014610206
44	0xbe1004dc	-0.14064354
45	0xbd1567ae	-0.03647583
46	0x3e3631dc	0.17792457
47	0x3bb104a7	0.005402166
48	0xbe091be7	-0.1338955
49	0x3da1626a	0.07880099
50	0x3dc14559	0.09437055
51	0x3cb6394e	0.022244122
52	0x3c553fde	0.013015715
53	0x3a7d4837	0.0009661945
54	0x3d419e0c	0.047269866
55	0xbe0b4f84	-0.13604552
56	0xbe2f0f2d	-0.17095633
57	0xbd556dbd	-0.052106608
58	0x3d289d07	0.041165378
59	0x3e049325	0.12946756
60	0xbe16cdca	-0.1472694
61	0xbd9155ab	-0.07096418
62	0x3dba519e	0.090975985
63	0x3c08bbda	0.008345569
64	0x3df33168	0.11874658
65	0x3e13d151	0.14435317
66	0x3e01b803	0.12667851
67	0xbe0c5fd5	-0.13708432
68	0x3db85ef5	0.090024866
69	0xbd6815fc	-0.05666159
70	0x3e2a13d4	0.16609126
71	0xbe20e776	-0.15713295
72	0x3dd16f28	0.102262795
73	0x3de51c5c	0.1118705
74	0x3d9e3e8a	0.07726772
75	0xbc2efaa1	-0.010679872
76	0xbdf91768	-0.121626675
77	0x3d21b29c	0.039476976
78	0xbd45a83d	-0.048256148
79	0xbe309605	-0.17244728
80	0x3e1ad12e	0.15118858
81	0x3e2474e9	0.16060223
82	0xbced75e7	-0.028986884
83	0x3d919e57	0.07110279
84	0x3e3beeac	0.18352765
85	0x3df79e89	0.12090785
86	0x3e16aa53	0.14713411
87	0x3c007785	0.007840996
88	0x3c35f841	0.011106552
89	0x3dc7b2cc	0.097509
90	0xbd5e738e	-0.05430942
91	0xbd97ed5c	-0.074183196
92	0x3d5ee270	0.054415166
93	0x3e299d8a	0.16564003
94	0x3e10a0c5	0.14123829
95	0xbc9f52a0	-0.019448578
96	0xbc3ab5d6	-0.011395892
97	0xbd7cb89c	-0.061699495
98	0xbe165c14	-0.14683563
99	0xbdbb70b2	-0.09152354
100	0xbdd90c06	-0.105979964
101	0x3d974660	0.0738647
102	0x3ddb316b	0.10702785
103	0x3d01b764	0.031669036
104	0xbe147bad	-0.14500304
105	0xbde7df94	-0.11321941
106	0xbd674115	-0.05645855
107	0xbe033273	-0.12812214
108	0x3e39bfc7	0.18139564
109	0x3e273ab9	0.16330995
110	0x3e0576db	0.13033621
111	0x3e3fb76b	0.18722312
112	0xbe075673	-0.13216572
113	0x3dded968	0.10881311
114	0xbcae3ca0	-0.021269143
115	0x3e5aa56c	0.21352166
116	0xbb912cd2	-0.004430392
117	0x3cf147e8	0.029453233
118	0x3dccc093	0.09997668
119	0x3c82abda	0.015951086
120	0xbe12f9a6	-0.14353046
121	0xbd956b30	-0.07295835
122	0xbdfa702c	-0.12228426
123	0x3d9b9444	0.07596639
124	0xbe102cd7	-0.14079605
125	0xbe2872b5	-0.16450007
126	0x3e218a6e	0.15775463
127	0xbdbb4c98	-0.091454685
128	0x3da99da3	0.0828202
129	0x3ddaddbd	0.106868245
130	0xbe215234	-0.15754014
131	0xbe45d194	-0.19318229
132	0x3d1aaa3c	0.037760004
133	0xbcda9912	-0.026684318
134	0xbd1da5aa	-0.038488068
135	0xbdd1e877	-0.10249417
136	0x3e203dca	0.1564857
137	0x3da92905	0.08259777
138	0xbe3097b2	-0.17245367
139	0x3e13233b	0.14368908
140	0xbdca1d30	-0.09868848
141	0x3d5b40ed	0.053528715
142	0xbd19b8c6	-0.03752973
143	0xbd02aedc	-0.03190504
144	0x3e0a9c2d	0.13536139
145	0xbdc57034	-0.09640542
146	0xbda51b4d	-0.08061848
147	0xbdb13b8e	-0.08653937
148	0xba0409c5	-0.0005036856
149	0xbe51ed84	-0.20500761
150	0xbd3dc4d0	-0.046330273
151	0x3e0fc942	0.14041618
152	0xbd914a6a	-0.070942715
153	0x3ddafa5e	0.10692285
154	0x39811eb9	0.00024627688
155	0x3d7a970a	0.0611792
156	0x3d46be40	0.04852128
157	0x3e38d0be	0.18048379
158	0xbe50d61b	-0.20394175
159	0x3e28fc5e	0.1650252
160	0x3dea80f5	0.11450378
161	0xbd1ad0c9	-0.03779677
162	0x3c1e1e87	0.009650833
163	0xbce2f47b	-0.027704468
164	0x3d1c85ed	0.03821366
165	0x3c7fdf6a	0.015617231
166	0x3e48d368	0.19611895
167	0x3ca9d60a	0.020731945
168	0xbd584f70	-0.052810133
169	0x3dedd6e9	0.116132565
170	0x3cc85f9a	0.024459649
171	0x3dfd54fe	0.123697266
172	0xbd6eae38	-0.058271617
173	0xbe1e7569	-0.15474476
174	0xbe156b60	-0.14591742
175	0xbe038d76	-0.12846932
176	0xbd4be119	-0.049775217
177	0x3d16b9c3	0.03679825
178	0x3dca6de4	0.09884241
179	0x3daf5020	0.085602045
180	0xbb700666	-0.0036624908
181	0x3e38bc7a	0.18040648
182	0xbdb4c7bf	-0.08827161
183	0x3e0ea2e5	0.13929327
184	0x3e2c3d3c	0.16820234
185	0x3e393f14	0.18090469
186	0xbd5892ca	-0.052874364
187	0x3e16f349	0.14741243
188	0x3de114b3	0.10990276
189	0x3c8c3f24	0.017119952
190	0xbe090639	-0.1338128
191	0xbdf88ff8	-0.12136835
192	0xbd7ee43d	-0.062229384
193	0x3d370052	0.04467804
194	0xbdf7b76e	-0.12095533
195	0xbd2a0a2e	-0.041513614
196	0x3e384e99	0.17998733
197	0xbdb75665	-0.08952025
198	0xbd9ea968	-0.077471554
199	0xbd6f66c6	-0.05844762
200	0xbd8550e6	-0.06509571
201	0x3e26677e	0.16250417
202	0xbe2b3d60	-0.16722631
203	0x3e02ca5a	0.12772503
204	0xbae63224	-0.001756255
205	0x3e31663f	0.1732416
206	0x3cdc6ead	0.026908243
207	0x3d720848	0.05908993
208	0xbc8e7dc4	-0.017393954
209	0x3d97202e	0.07379185
210	0x3d733657	0.059377994
211	0x3d3616cd	0.04445534
212	0x3c10defd	0.008842227
213	0x3dae99d9	0.08525438
214	0xbd00b29d	-0.03142034
215	0x3df700c9	0.12060697
216	0xbd8cb4c8	-0.06870419
217	0x3d99c2ab	0.07507833
218	0x3d8da8af	0.069169395
219	0x3d8ffacf	0.0703026
220	0xbd98fa28	-0.074695885
221	0xbd3ed886	-0.04659321
222	0xbdc92393	-0.09821238
223	0xbaae6a2d	-0.0013306789
224	0x3e1c9312	0.15290478
225	0xbccba74a	-0.024860043
226	0x3d199be3	0.03750218
227	0x3dec7b48	0.115469515
228	0x3e3a9c8f	0.18223785
229	0xbe2a8355	-0.16651662
230	0xbdcc81d2	-0.09985699
231	0xbe3ad1c5	-0.18244083
232	0xbc05abd3	-0.008158642
233	0xbe103253	-0.14081697
234	0xbe02c49d	-0.12770315
235	0xbe830030	-0.2558608
236	0xbe0e6520	-0.13905764
237	0x3e318166	0.17334518
238	0xbda05a7b	-0.07829758
239	0xbda03691	-0.07822908
240	0xbcd7e8b0	-0.026356071
241	0x3daac313	0.08337989
242	0xbd96bb53	-0.07359948
243	0xbe14e52e	-0.1454055
244	0x3e079087	0.13238727
245	0x3db18277	0.08667462
246	0x3cc48550	0.02398935
247	0xbcbbbc1c	-0.022916846
248	0x3cb59450	0.022165447
249	0x3d05bd9a	0.03265152
250	0xba5d7758	-0.00084482646
251	0x3dfd3bf7	0.12364953
252	0xbe02ac60	-0.12761068
253	0x3d57c7e2	0.052680857
254	0x3e2480b8	0.16064727
255	0x3e26d9ba	0.16293994

3.bias f4 [30]
0	0x3d5cd7a9	0.053916607
1	0xbe3e3963	-0.18576579
2	0xbd9be132	-0.07611312
3	0xbd6e8504	-0.058232322
4	0x3da9451b	0.08265134
5	0xbda54387	-0.080695204
6	0x3bc402aa	0.005981763
7	0x3d41190c	0.047143027
8	0x3dbbae7f	0.09164142
9	0x3e16368a	0.14669243
10	0xbd893a11	-0.067005284
11	0xbddb9018	-0.10720843
12	0xbd8a2497	-0.0674526
13	0x3dadf5fa	0.08494182
14	0xbda9e449	-0.08295495
15	0xbdb8ddd2	-0.09026684
16	0x3de3298b	0.11091908
17	0xbdbea9ab	-0.09309705
18	0xbd60d063	-0.054886233
19	0x3df4b65a	0.11948843
20	0xbc69e2b9	-0.014275246
21	0x3bd31cb8	0.0064426325
22	0xbe07a924	-0.13248116
23	0xbe0ae2a8	-0.13563025
24	0x3ddb152e	0.10697399
25	0x3e1100eb	0.14160506
26	0xbd95c80a	-0.07313545
27	0x3e0c4f5e	0.13702151
28	0xbe159e80	-0.14611244
29	0xbde0f854	-0.10984865

5.weight f4 [30]
0	0x3f7eab8f	0.9948053
1	0x3f7d3e88	0.9892354
2	0x3f812d53	1.0091957
3	0x3f7fa5b5	0.99862224
4	0x3f803d93	1.0018791
5	0x3f7da9cb	0.9908721
6	0x3f80b35a	1.0054734
7	0x3f82862f	1.01972
8	0x3f7ed909	0.9954992
9	0x3f7f758b	0.9978873
10	0x3f8118f9	1.0085746
11	0x3f86b83d	1.0524975
12	0x3f7e25b0	0.99276257
13	0x3f74b6b5	0.9559129
14	0x3f8185fc	1.0119014
15	0x3f7dd101	0.9914704
16	0x3f8127ff	1.0090331
17	0x3f8253c9	1.0181819
18	0x3f7d9231	0.99051195
19	0x3f7fe195	0.99953586
20	0x3f80a7ca	1.0051205
21	0x3f7fdda5	0.9994758
22	0x3f7d5f89	0.989739
23	0x3f80f7a4	1.0075574
24	0x3f7fa8d4	0.99866986
25	0x3f7ea1a3	0.9946539
26	0x3f7df3ca	0.9920012
27	0x3f8209e7	1.0159272
28	0x3f7c8677	0.9864268
29	0x3f82100f	1.0161151

5.bias f4 [30]
0	0x3bc0c2e9	0.00588261
1	0x3c8f2b2f	0.017476646
2	0x3c017d10	0.007903352
3	0xbb83261c	-0.0040023457
4	0x3bf1eb80	0.00738281
5	0xbc35c3b4	-0.011094023
6	0xbc9f2dbc	-0.019430988
7	0x3cacf38d	0.021112228
8	0x3c1c9625	0.009557282
9	0x3cbbaa30	0.0229083
10	0x3c962703	0.01832915
11	0x3be7b5c2	0.0070712278
12	0x3c9ce88b	0.019153854
13	0x3cdefa20	0.027218878
14	0x3c9bbe1c	0.01901155
15	0x3d2ea797	0.042640295
16	0xbcce9741	-0.025218608
17	0xbaa26bb2	-0.0012391715
18	0x3cdff9e6	0.02734084
19	0x3c8f9fd2	0.017532263
20	0x3c9974a8	0.018732384
21	0x3d28a4ed	0.04117291
22	0xbc208e40	-0.00979954
23	0xbb39a8ff	-0.002832949
24	0xbc4bf18d	-0.012447727
25	0xbcc487be	-0.023990508
26	0xbb86f515	-0.0041185715
27	0xbc900dff	-0.017584799
28	0x3c84dba2	0.01621801
29	0xbca5379b	-0.020168116

5.running_mean f4 [30]
0	0x3eb305de	0.34965414
1	0x3d80878d	0.06275854
2	0x3e035899	0.12826766
3	0x3eab3cd6	0.33444852
4	0x3e88839c	0.2666291
5	0x3e210901	0.15726091
6	0x3e704d41	0.2346697
7	0x3e17ae37	0.14812551
8	0x3e2935e8	0.1652447
9	0x3ed1e2fd	0.4099349
10	0x3e75be3a	0.23998347
11	0x3e588e2d	0.21147986
12	0x3e67b076	0.22625908
13	0x3e5d84c7	0.21632682
14	0x3e86bff1	0.26318315
15	0x3dfd8887	0.12379556
16	0x3eb9bdfc	0.3627776
17	0x3dc97706	0.09837155
18	0x3eaba146	0.3352148
19	0x3ea9fcd8	0.33200717
20	0x3de0fb2e	0.10985409
21	0x3e011881	0.12607004
22	0x3da95a9d	0.08269236
23	0x3e32d741	0.17464925
24	0x3e896154	0.26832068
25	0x3edda135	0.43287054
26	0x3e8f21b5	0.27955404
27	0x3e8865e1	0.26640227
28	0x3cc7e779	0.024402367
29	0x3e648889	0.22317709

5.running_var f4 [30]
0	0x3ec21537	0.3790681
1	0x3d980bd3	0.0742413
2	0x3eb9ea2f	0.3631148
3	0x3ea4227a	0.32057554
4	0x3d1222e8	0.03567782
5	0x3da637a9	0.08116085
6	0x3eba017f	0.36329266
7	0x3d956dba	0.07296319
8	0x3cf4d493	0.02988652
9	0x3f0ac8cd	0.5421265
10	0x3e35c1dd	0.17749734
11	0x3cf6404f	0.030059962
12	0x3e08e4d6	0.13368544
13	0x3dcb0d58	0.099146545
14	0x3e4b47c1	0.1985159
15	0x3e7da090	0.24768281
16	0x3d792269	0.06082383
17	0x3cbc69cc	0.022999667
18	0x3e934e59	0.28770712
19	0x3d53a2f9	0.051669095
20	0x3d157f01	0.036498073
21	0x3e3292da	0.17438832
22	0x3dfef288	0.12448603
23	0x3dc06b57	0.093954735
24	0x3d02de81	0.031950478
25	0x3e89e5b4	0.26933062
26	0x3e65fad8	0.2245897
27	0x3d8e12c5	0.06937174
28	0x3c3d927c	0.011570569
29	0x3ccfebe2	0.025381032

6.weight f4 [30, 30]
0	0xbdfdc2c7	-0.123906665
1	0x3db2274c	0.086989015
2	0xbaece94a	-0.0018074897
3	0x3e2e6340	0.17030048
4	0x3bf748a6	0.007546502
5	0x3e3538c7	0.1769744
6	0xbda8b8b7	-0.082383566
7	0x3d81efe4	0.06344584
8	0xbe2505c9	-0.16115488
9	0x3d9d6d96	0.076869175
10	0xbe1aa86e	-0.15103313
11	0xbe410e76	-0.18853173
12	0x3dfff2a8	0.12497455
13	0x3e29d30b	0.16584413
14	0xbdaaab94	-0.08333507
15	0xbd9528e7	-0.07283192
16	0x3e34b694	0.17647773
17	0x3de8f33b	0.113745175
18	0xbe2c2e49	-0.16814531
19	0xbe074f61	-0.13213874
20	0xbdc354ff	-0.09537696
21	0xbdfffd5e	-0.12499498
22	0xbe1c66c3	-0.15273575
23	0xbc9bc4b0	-0.019014686
24	0x3df06789	0.11738498
25	0x3dfaf530	0.12253797
26	0xbe020e5f	-0.12700795
27	0xbd7cec3f	-0.06174874
28	0x3dc38d2a	0.09548409
29	0xbe01129b	-0.12604754
30	0xbd8a72a5	-0.06760148
31	0xbdfd8d32	-0.123804465
32	0x3dcb9923	0.09941318
33	0xbe1b1838	-0.15145957
34	0xbd61e7a3	-0.055152547
35	0xbd961607	-0.0732842
36	0xbdc90bda	-0.09816714
37	0x3e29945d	0.16560502
38	0xbd3d7c9b	-0.04626141
39	0xbcc8591f	-0.024456559
40	0xbda46037	-0.08026164
41	0x3cd66b93	0.026174342
42	0x3e0b4a34	0.13602525
43	0xbd368988	-0.044564754
44	0xbe030248	-0.12793839
45	0x3e081989	0.13290991
46	0x3c1791ae	0.009251041
47	0x3baecd33	0.0053345202
48	0xbe070d94	-0.13188773
49	0x3da02621	0.078197725
50	0xbdd2325b	-0.10263511
51	0xbda90bd9	-0.08254213
52	0x3d04b030	0.032394588
53	0xbe131832	-0.14364699
54	0x3cf793db	0.03022187
55	0xbe253894	-0.16134864
56	0xbda36e8f	-0.07980072
57	0xbd61cdde	-0.05512797
58	0x3ddf30e2	0.108979955
59	0xba8a67b2	-0.0010559468
60	0x3d7eeb29	0.062235985
61	0x3ddfb89f	0.109238856
62	0xbbdcd4cb	-0.006739234
63	0x3e328307	0.17432795
64	0x3dd8be98	0.10583228
65	0xbe27538b	-0.16340463
66	0xbe1dffac	-0.15429562
67	0x3cc87976	0.02447198
68	0xbd8eddc8	-0.06975895
69	0x3e27450f	0.16334938
70	0xbc74f386	-0.014950639
71	0x3e40c895	0.18826516
72	0x3e25b807	0.16183482
73	0xbd6ffef2	-0.058592744
74	0xbe2e5dad	-0.17027922
75	0x3e19b44b	0.15010183
76	0xbdd30707	-0.10304075
77	0x3e00a4af	0.12562822
78	0x3e13688b	0.14395349
79	0xbd529c56	-0.051418625
80	0x3d9db76b	0.07701
81	0xbc7d2da3	-0.015452775
82	0xbdb46f88	-0.088103354
83	0xbe28ec12	-0.16496304
84	0xbe0ea491	-0.13929965
85	0x3e44c8be	0.19217202
86	0xbe04566b	-0.12923591
87	0xbe13f66f	-0.14449476
88	0xbd9f142e	-0.07767521
89	0xbd0e97eb	-0.03481285
90	0xbdddc275	-0.10828105
91	0xbd1a16f6	-0.037619554
92	0xbe1f05a1	-0.15529491
93	0xbddb001d	-0.10693381
94	0xbdc21bec	-0.09477982
95	0x3c839dec	0.016066514
96	0x3dc66222	0.09686686
97	0xbe41f473	-0.18940906
98	0xbb8d7b3f	-0.0043176706
99	0xbdaa6f75	-0.0832204
100	0x3cd51f51	0.02601591
101	0xbe81c9b1	-0.2534919
102	0xbe0085f2	-0.12551096
103	0xbe074938	-0.13211524
104	0xbca3b0d7	-0.019981785
105	0xbe2d0214	-0.16895324
106	0x3e0318fd	0.12802501
107	0x3d84e3ce	0.06488763
108	0xbe2b7d59	-0.16747035
109	0xbe2a2888	-0.16617024
110	0xbe466e0d	-0.19377919
111	0xbe2bdb13	-0.16782789
112	0x3d8f0d6e	0.069849834
113	0x3d8a374f	0.067488305
114	0xbc9c39f2	-0.0190706
115	0x3db2c9a4	0.08729866
116	0x3df3021f	0.11865639
117	0xbbe57717	-0.007002722
118	0xbdbb75cf	-0.091533296
119	0x3e2457a2	0.16049054
120	0xbdecac2e	-0.11556278
121	0xbd62b393	-0.055347037
122	0x3d2a503c	0.041580424
123	0x3c92576b	0.01786395
124	0x3e019d69	0.12657703
125	0xbdd2e0c6	-0.102967784
126	0x3db3cff9	0.08779902
127	0x3d158ddd	0.036512244
128	0xbe15ef13	-0.14641981
129	0x3ce0b368	0.027429298
130	0x3e020836	0.12698445
131	0xbdf3cd01	-0.11904336
132	0xbde87234	-0.113499075
133	0x3d3a767c	0.04552315
134	0x3de8c17d	0.1136503
135	0xbe3c579c	-0.18392795
136	0x3e0c021f	0.13672684
137	0xbd747952	-0.059686013
138	0x3e0a1af8	0.1348685
139	0xbe3a8d1f	-0.18217896
140	0xbd1f49c7	-0.03888872
141	0xbce9a360	-0.028520286
142	0xbe25fadf	-0.16208981
143	0x3e68eb5d	0.22746034
144	0x3c5b8b59	0.013399922
145	0x3cce7028	0.025199965
146	0xbdc339f1	-0.09532536
147	0xbddf6fc4	-0.109099895
148	0xbc9e92c4	-0.019357093
149	0xbd78d478	-0.0607495
150	0x3e047f97	0.12939297
151	0xbad674b8	-0.0016361689
152	0x3d091f23	0.03347696
153	0xbe06e465	-0.13173063
154	0x3dbd282b	0.09236177
155	0xbe14d4fd	-0.14534374
156	0xbe1ac0a6	-0.15112552
157	0x3c1469be	0.009058414
158	0xbddf79ca	-0.10911901
159	0xbdbca907	-0.09211927
160	0xbdd22a6c	-0.102619976
161	0xbdf4e509	-0.119577475
162	0xbde62a16	-0.11238496
163	0xbcf6ad83	-0.030112034
164	0xbd944bd2	-0.07241024
165	0xbe1a5ca1	-0.15074398
166	0x3a9a4eab	0.0011772712
167	0x3e1b77e9	0.15182461
168	0xbccfc992	-0.02536467
169	0x3ce434cc	0.027857207
170	0x3df3af4b	0.11898669
171	0x3e0baffb	0.1364135
172	0x3ce82a2d	0.028340423
173	0xbcd38558	-0.02582042
174	0x3dc80445	0.09766439
175	0x3dc02e77	0.093838625
176	0xbde5473d	-0.11195228
177	0x3c90ce73	0.017676568
178	0xbdc8f90e	-0.098131284
179	0x3e18697d	0.1488399
180	0xbe40c934	-0.18826753
181	0x3dc9b1c2	0.09848358
182	0xbc28be05	-0.01029921
183	0xbd8f824f	-0.07007276
184	0x3e5c0916	0.21487841
185	0x3cbf12c2	0.023324374
186	0xbe245271	-0.16047074
187	0xbe0d361a	-0.1379017
188	0xbc946eb1	-0.018119188
189	0xbdf1eabd	-0.11812351
190	0x3dafad22	0.08577944
191	0xbd18cb0c	-0.037303016
192	0xbd814caf	-0.06313454
193	0xbcdb32f4	-0.026757695
194	0x3d39eaaf	0.045389827
195	0xbdb51d4f	-0.08843481
196	0x3d87ca47	0.06630378
197	0x3e649d3c	0.22325605
198	0x3d51b246	0.051195405
199	0xbdb45031	-0.08804358
200	0x3d0537a0	0.03252375
201	0xbc4d447c	-0.012528535
202	0xbe18ae0e	-0.14910147
203	0xbd724502	-0.059147842
204	0x3d8be638	0.0683102
205	0xbd8d97fb	-0.069137536
206	0xbe0b25db	-0.1358866
207	0xbdb4203c	-0.08795211
208	0x3dadcde2	0.08486535
209	0x3e424221	0.18970539
210	0x3d9d6703	0.076856636
211	0xbd91f94a	-0.07127626
212	0x3d01137d	0.031512726
213	0x3e0636e0	0.1310687
214	0xbddb524a	-0.10709055
215	0x3d9cb852	0.07652344
216	0x3e24dc7a	0.1609973
217	0x3a091302	0.00052289676
218	0xbdfd484a	-0.12367304
219	0xbdfc8ac1	-0.12331153
220	0x3d8af22b	0.06784471
221	0x3cd6738f	0.02617815
222	0xbdb2e5cc	-0.087352365
223	0xbd6c85d5	-0.05774482
224	0x3dfac1a0	0.12243962
225	0x3c5df164	0.013546322
226	0xbd8e042a	-0.06934388
227	0x3d784dd2	0.06062109
228	0x3d528231	0.05139369
229	0x3e268802	0.1626282
230	0xbe04899f	-0.12943123
231	0xbdd65494	-0.10465351
232	0xbdfc720b	-0.123264395
233	0x3e30e972	0.17276552
234	0xbd834d4c	-0.064112276
235	0x3d71f25c	0.059069023
236	0x3d099aa9	0.03359476
237	0x3e0c6d5e	0.13713595
238	0x3e136c0a	0.14396682
239	0x3defff39	0.11718602
240	0x3de31ff5	0.1109008
241	0x3e32434c	0.17408484
242	0x3dad8c35	0.08474008
243	0xbe30e835	-0.1727608
244	0x3d37944a	0.044819154
245	0x3d5fff31	0.05468673
246	0xbd886079	-0.06659026
247	0xbdbf371c	-0.09336683
248	0x3e1f5353	0.1555913
249	0xbde0fe38	-0.109859884
250	0x3da5adce	0.08089791
251	0x3c7e59f0	0.015524372
252	0x3e325c02	0.1741791
253	0xbd2cd18e	-0.042192034
254	0xbd99bdbe	-0.075068936
255	0xbe3d50c7	-0.18487845

6.bias f4 [30]
0	0xbd7004bf	-0.058598276
1	0xbd226ac5	-0.039652605
2	0x3d82a5e9	0.06379301
3	0x3c59fd41	0.013305009
4	0x3db2a115	0.0872213
5	0xbd59a87c	-0.053139195
6	0xbe064cf9	-0.131153
7	0x3e00195d	0.12509675
8	0xbd4bde5f	-0.049772616
9	0xbe38ee54	-0.18059665
10	0x3d372db7	0.04472133
11	0xbe163510	-0.14668679
12	0xbe25b279	-0.16181363
13	0xbdf7e4ac	-0.121041626
14	0xbd9dea42	-0.07710697
15	0x3e346a6a	0.17618719
16	0xbcdb77c8	-0.026790515
17	0x3df4a12c	0.119448036
18	0x3e12bdc2	0.143302
19	0xbe013f9e	-0.12621924
20	0x3d00db60	0.031459212
21	0xbd03e8ab	-0.03220431
22	0x3e05d32a	0.13068834
23	0x3e373c73	0.17894153
24	0x3d343f47	0.04400566
25	0xbcc32c0a	-0.02382471
26	0x3c0a8395	0.008454223
27	0xbe0e4383	-0.13892941
28	0xbe3c44ab	-0.1838557
29	0x3da6dc2e	0.08147465

8.weight f4 [30]
0	0x3f777706	0.9666599
1	0x3f76135b	0.96123284
2	0x3f79d7f4	0.97595143
3	0x3f78bdb1	0.97164446
4	0x3f797ba4	0.97454286
5	0x3f7b879d	0.98253804
6	0x3f73227f	0.9497451
7	0x3f7ac876	0.9796213
8	0x3f79af2d	0.9753292
9	0x3f7a7746	0.97838247
10	0x3f7512e9	0.9573198
11	0x3f78b755	0.9715474
12	0x3f7b469f	0.98154634
13	0x3f7a0144	0.9765818
14	0x3f74a2a8	0.95560694
15	0x3f75eb00	0.96061707
16	0x3f78c269	0.97171646
17	0x3f776bc0	0.9664879
18	0x3f711b0e	0.9418191
19	0x3f76d7ee	0.9642323
20	0x3f761836	0.9613069
21	0x3f7a52c3	0.97782534
22	0x3f76b475	0.96369106
23	0x3f7b4ec1	0.98167044
24	0x3f73014e	0.94923866
25	0x3f79fe62	0.9765378
26	0x3f7b9914	0.98280454
27	0x3f7a8f2b	0.97874707
28	0x3f791e95	0.9731229
29	0x3f798bb2	0.97478783

8.bias f4 [30]
0	0x3e031734	0.1280182
1	0x3d5abd09	0.053402934
2	0xbdb7be6c	-0.08971867
3	0x3daeac6a	0.08528979
4	0x3e96c23d	0.29445067
5	0xbbe73849	-0.0070562703
6	0x3e95ef7f	0.29284284
7	0xbcefc527	-0.029268814
8	0xbc6bb759	-0.014386975
9	0x3ded058e	0.11573325
10	0xbea735fd	-0.32658377
11	0xbcfe2236	-0.031022172
12	0xbde6645d	-0.112496115
13	0xbc439b32	-0.011938857
14	0xbe8aff27	-0.2714779
15	0x3df21c1b	0.11821767
16	0x3e6ee578	0.23329723
17	0xbe19a17c	-0.15003008
18	0x3eead914	0.45868742
19	0x3e3d0183	0.18457608
20	0x3da3058c	0.07960042
21	0x3cc362b8	0.023850784
22	0x3de7a77f	0.11311244
23	0xbe5d6cab	-0.21623485
24	0xbe9b7661	-0.30363753
25	0xbdc5856f	-0.09644591
26	0x3dbc8084	0.092042
27	0xbe0ff013	-0.14056425
28	0xbdaa2937	-0.08308642
29	0xbdde3e29	-0.108517

8.running_mean f4 [30]
0	0x3d3f40cc	0.046692654
1	0x3e8516df	0.25994012
2	0x3e12fa97	0.14353405
3	0x3e52a1bd	0.20569511
4	0x3e8ff866	0.281192
5	0x3ebfa7c8	0.37432694
6	0x3e81f08d	0.25378838
7	0x3e749879	0.23886289
8	0x3eab6e93	0.334828
9	0x3d66e4e0	0.056370616
10	0x3e802323	0.25026807
11	0x3d59b386	0.053149723
12	0x3da78477	0.081795625
13	0x3e2e586f	0.17025922
14	0x3e9d6f9d	0.30749217
15	0x3ee698bb	0.450384
16	0x3e83afa6	0.25719947
17	0x3e93f110	0.28894854
18	0x3eb6fced	0.35739842
19	0x3e936d18	0.2879417
20	0x3e609ac0	0.21934032
21	0x3dc64163	0.0968044
22	0x3ecc428a	0.39894515
23	0x3ea997dd	0.33123675
24	0x3e9734bc	0.2953242
25	0x3ebe366c	0.37150896
26	0x3e6b800d	0.22998066
27	0x3e91cdfd	0.2847747
28	0x3e4ccdde	0.20000407
29	0x3e36ad78	0.1783961

8.running_var f4 [30]
0	0x3c95ddd2	0.018294249
1	0x3d58768f	0.05284744
2	0x3e3bf58b	0.18355386
3	0x3d02a6a3	0.0318972
4	0x3e7f2c1f	0.24919175
5	0x3d887ab2	0.06664027
6	0x3db7f556	0.08982341
7	0x3e387773	0.18014316
8	0x3d8bd9d8	0.0682866
9	0x3d449f5c	0.04800354
10	0x3dc90694	0.09815708
11	0x3d17cc24	0.037059918
12	0x3da2b237	0.07944148
13	0x3e1996f8	0.14998996
14	0x3f27de57	0.6557364
15	0x3efe553f	0.49674413
16	0x3e5ae8c4	0.21377856
17	0x3e489584	0.19588286
18	0x3fb01916	1.3757656
19	0x3e6a3c1b	0.22874491
20	0x3d01ef2b	0.03172223
21	0x3ced104c	0.028938435
22	0x3f177012	0.5915538
23	0x3e95ce86	0.29259127
24	0x3d465f61	0.048430804
25	0x3ed610b1	0.4180961
26	0x3d6ef6e4	0.058340922
27	0x3e60f327	0.21967755
28	0x3e021e7d	0.12706943
29	0x3dbf3dbd	0.093379475

9.weight f4 [5, 30]
0	0xbd3ed32a	-0.0465881
1	0xbc8c939d	-0.017160231
2	0xbdddebb8	-0.108359754
3	0x3e143f1d	0.14477201
4	0x3e92de28	0.28685117
5	0x3d3ccee9	0.046095762
6	0x3e889fb0	0.26684332
7	0x3c66754b	0.014066051
8	0x3d01da62	0.031702407
9	0x3e1aaf65	0.1510597
10	0xbe988015	-0.2978522
11	0x3c1f3b9c	0.009718802
12	0xbe376f70	-0.17913604
13	0x3d689389	0.056781325
14	0xbe2b4116	-0.16724047
15	0x3d48e0f7	0.04904267
16	0x3e2b7420	0.16743517
17	0x3c3015b5	0.010747363
18	0x3e923422	0.285554
19	0x3e16b533	0.1471756
20	0x3d81dd1a	0.06341
21	0xbcb48ec9	-0.022040742
22	0x3e009fea	0.12561002
23	0xbdffdc50	-0.12493193
24	0xbe60332f	-0.21894525
25	0xbe500aec	-0.20316666
26	0x3e1b740b	0.15180986
27	0xbdd0f80a	-0.1020356
28	0x3c45fdb6	0.012084415
29	0xbc735e0c	-0.0148539655
30	0xbdd5d7e3	-0.10441568
31	0x3d9acd31	0.075586684
32	0xbd1b3d8b	-0.03790049
33	0xbdb43fd1	-0.088012345
34	0x3e014af2	0.12626246
35	0xbc1c6bb1	-0.00954716
36	0xbd6f868a	-0.058477916
37	0x3bdd9e5b	0.006763262
38	0x3d1d667b	0.03842781
39	0x3d90b012	0.07064833
40	0xbb55f135	-0.0032644991
41	0x3c2bc747	0.010484523
42	0xbe17fed5	-0.14843304
43	0x3c4a66c7	0.012353606
44	0xbd6875da	-0.056753017
45	0x3e28e525	0.16493662
46	0xbce4ac91	-0.027914317
47	0x3b3598d1	0.0027709494
48	0x3d816c12	0.06319441
49	0x3d93663f	0.07197236
50	0xbca4bb23	-0.020108765
51	0xbd2deb88	-0.04246095
52	0x3e270498	0.16310346
53	0xbe165762	-0.14681771
54	0xbd11d5b2	-0.035604186
55	0x3dcff454	0.10154024
56	0x3e1bcc29	0.152146
57	0xbe3de763	-0.18545298
58	0x3da85015	0.082183994
59	0xbd906079	-0.07049651
60	0xbde999ec	-0.114063114
61	0xbe11dbd2	-0.14244011
62	0xbc6fb464	-0.014630411
63	0xbe3ea089	-0.18615927
64	0xbe00d432	-0.12580946
65	0xbddb03b1	-0.106940635
66	0xbd7d5183	-0.061845314
67	0x3d08d608	0.03340724
68	0x3d49fcce	0.04931336
69	0x3df67e5e	0.120358214
70	0x3d054d81	0.032544617
71	0x3d592d50	0.05302173
72	0xbde499c8	-0.11162144
73	0x3dfe61df	0.12421011
74	0xbcb05c1a	-0.021528292
75	0xbdd8f03c	-0.10592696
76	0xbc208e5e	-0.009799568
77	0xbbe5582f	-0.0069990377
78	0xbdd29c86	-0.10283761
79	0x3d428c6f	0.04749721
80	0xbd72c99f	-0.059274312
81	0x3d055f39	0.032561515
82	0xbd05924a	-0.032610215
83	0x3db4af70	0.088225245
84	0x3db8fa22	0.09032084
85	0x3e082d31	0.13298489
86	0x3e1d7bd8	0.15379274
87	0xbd651188	-0.055924922
88	0x3d4da39e	0.050204866
89	0xbcfdd7dd	-0.03098672
90	0xbe070a89	-0.13187613
91	0xbdd43ea2	-0.10363509
92	0x3d6b1035	0.057388503
93	0x3c492287	0.012276298
94	0xbe3806c4	-0.17971331
95	0xbcef7807	-0.029232038
96	0xbdac76e6	-0.084211156
97	0xbda1cbfc	-0.07900235
98	0xbd157d87	-0.036496665
99	0xbdb03298	-0.086034
100	0x3dea9a55	0.11455218
101	0xbd6633f0	-0.056201875
102	0xbe306a07	-0.17227946
103	0x3d5ee182	0.05441428
104	0x3e0c81f5	0.1372145
105	0xbe15cd20	-0.1462903
106	0xbe321f76	-0.17394814
107	0x3dabe911	0.08394063
108	0xbe7798b2	-0.24179342
109	0x3d0931ac	0.033494636
110	0xbcabf173	-0.020989155
111	0x3daec3a1	0.08533407
112	0x3dc561c6	0.096377894
113	0x3dba8fe1	0.09109474
114	0x3cbb4c5b	0.022863558
115	0x3d777b9b	0.060420614
116	0x3d87a669	0.06623537
117	0xbd16fa24	-0.036859646
118	0x3d861957	0.06547802
119	0x3de6ec1e	0.112755045
120	0xbd6fd120	-0.058549047
121	0x3d64972f	0.055808242
122	0xbd19d288	-0.037554294
123	0xbc7b29ce	-0.015329791
124	0xbc62906a	-0.013828376
125	0x3de0e765	0.10981635
126	0xbdde738f	-0.10861885
127	0x3d62e965	0.055398364
128	0x3e1b8dc4	0.15190798
129	0xbcb45b83	-0.022016292
130	0x3d80746e	0.06272207
131	0xbd93138e	-0.07181464
132	0x3daca56d	0.0842999
133	0x3d9bc8a1	0.07606626
134	0x3e1d3098	0.15350568
135	0x3de0a9dc	0.10969898
136	0xbe00651b	-0.12538569
137	0x3e742b43	0.23844628
138	0xbe90d620	-0.28288364
139	0xbe2d1b15	-0.16904862
140	0xbdd78601	-0.10523606
141	0xbdee27d4	-0.1162869
142	0xbc3c59db	-0.011496033
143	0x3e3669f3	0.17813854
144	0x3e410656	0.18850073
145	0xbda2bf61	-0.07946659
146	0xbcb1359a	-0.021632005
147	0x3dc68136	0.09692614
148	0x3e008072	0.12548998
149	0x3d943d28	0.07238227

9.bias f4 [5]
0	0x3f86eec7	1.0541619
1	0x3e955b6c	0.29171312
2	0xbe1e5904	-0.15463644
3	0xbf176046	-0.59131277
4	0xbf3e2cb6	-0.74286973
