FBIproject/fbiapp/script/model/pretrained_실내활동.pt (torch, 17790 bytes, 20 tensors)

0.weight f4 [30, 5]
000000 eb e6 8e 3e 15 7d 55 3e a4 0e 84 bd 47 0d 36 bd
       0.2791055 0.20848496 -0.06448105 -0.044446256
000010 b5 ec de 3d 39 a8 da 3e 8f f3 70 be cb 67 dc 3d
       0.10884992 0.4270647 -0.2353041 0.107619844
000020 aa b0 f3 3d 57 88 91 bd 04 6e 1f 3e 11 4c 08 bd
       0.1189893 -0.07106083 0.15569311 -0.033275668
000030 18 42 e0 3e fb e6 78 3d 6b 60 a1 3e 75 96 b8 3e
       0.43800426 0.060767155 0.31518874 0.3605229
000040 31 be 86 be e7 24 1f 3e 70 c4 82 3c 9c 47 e1 bd
       -0.2631698 0.15541421 0.01596281 -0.109999865
000050 37 22 bc be da 96 0a 3d 5f 89 a4 be c6 be 4c 3c
       -0.36744854 0.03383527 -0.32136056 0.012496656
000060 1f 97 e0 bb b5 e2 a8 3d c2 a2 ce bd 1b 4f 86 be
       -0.0068539525 0.08246366 -0.10089637 -0.26232228
000070 0d ba 48 be 34 21 da be b8 b3 83 3e ee e8 16 3e
       -0.19602223 -0.42603457 0.25723052 0.14737293
000080 8e ca bb 3e 83 3a 75 3e 1c d9 f5 3c 32 c6 a5 bb
       0.36677974 0.23948102 0.030010752 -0.005059027
000090 2c 5d 91 3e 1c 35 06 3f 8c b0 80 3e 83 2c 0a be
       0.28391397 0.5242479 0.25134695 -0.13493542
0000a0 6d 85 a4 3d f1 82 db be 9a 3b 68 bc fa 78 84 3e
       0.080332614 -0.42873338 -0.014174366 0.25873548
0000b0 b4 0b 83 be 14 01 5d 3e 9c 4b f4 3e 67 ab d4 3d
       -0.25594866 0.21582443 0.47713935 0.10384255
0000c0 68 44 b9 be 2e 5f ab 3e 2b 59 76 3e 21 f2 4c bd
       -0.36185002 0.33471054 0.24057452 -0.0500356
0000d0 52 da f8 bd 94 fd 82 bb 8c cb ad 3e 80 e3 89 3e
       -0.12151016 -0.003997514 0.33944356 0.2693138
0000e0 f1 fb 97 be 27 2a a5 3e 5f 4c 28 be 86 22 3c 3e
       -0.29684404 0.32258722 -0.16435383 0.18372545
0000f0 02 ae 27 be 45 e4 d6 be 16 11 e7 bd f7 73 da 3e
       -0.16374972 -0.4197103 -0.11282556 0.426666
000100 76 23 4c 3e d6 3e 72 be d6 d0 75 3e c2 84 b1 3e
       0.19935402 -0.23656783 0.24005446 0.346716
000110 6c 91 1a bf b9 bc 1f bd 08 2f c1 3e 6d 66 aa be
       -0.60378146 -0.03899834 0.37731194 -0.3328127
000120 d0 73 32 be 0c 59 52 3d 62 82 15 be 3b 9c b7 be
       -0.17426991 0.051354453 -0.14600518 -0.35861382
000130 1a 6e bc be cf e4 66 be e3 a2 50 be 11 89 f3 3d
       -0.3680275 -0.22548221 -0.20374636 0.11891378
000140 9e f0 ba bd ce 1e bd be ec 9c 11 3e 1d 6a bd 3c
       -0.09127925 -0.36937565 0.14220017 0.023121888
000150 6d 8a a7 3e dc d3 01 3e 1e 19 23 be 47 62 cc 3e
       0.32722798 0.12678474 -0.1592755 0.3991873
000160 69 4c 6d 3c 6b 4e be 3e b8 2a 02 3e 72 33 36 3e
       0.01448355 0.37169203 0.12711608 0.17793062
000170 2b a9 3c 3e 33 e5 c6 be 90 9c d3 be 80 1f 53 be
       0.18423907 -0.3884674 -0.41330385 -0.20617485
000180 b3 12 59 be 02 44 62 3e b2 bb 0d be ec 98 c1 be
       -0.2119854 0.22096255 -0.13841131 -0.37811983
000190 e8 f6 9b 3c 19 47 09 3f db 42 9e 3e 2b bf ae 3d
       0.019038633 0.5362411 0.30910382 0.08532556
0001a0 d4 c2 91 be a7 5a a7 be 30 96 c9 be b4 74 5e 3d
       -0.28468955 -0.3268635 -0.39372396 0.054310516
0001b0 12 f9 91 3d 77 6f 75 bd 12 96 42 3e 0a c1 6f be
       0.071275845 -0.059920754 0.1900256 -0.23413482
0001c0 c6 6b 50 be ad 7e 5e be 38 4b 57 3e 20 fa cf be
       -0.20353612 -0.2172801 0.21024787 -0.40620518
0001d0 3d 18 9b bd 33 f6 8e 3d d7 a8 e3 be 14 6e 43 3e
       -0.075729825 0.069805525 -0.44464752 0.1908496
0001e0 02 35 d1 be 8f 49 4b be 35 8c ab bd 5f 6a 5b 3d
       -0.40860754 -0.19852279 -0.08376352 0.05356824
0001f0 65 38 43 3e 2a 69 ba 3e 98 7b df be 9a 86 3e 3e
       0.19064482 0.3640836 -0.43648982 0.18606034
000200 7c 14 53 3e c8 ce 94 3e bd e7 ce be 0a 2f ce be
       0.20613283 0.29064012 -0.40411177 -0.40270263
000210 a0 44 e4 3e 2b 47 ce be c9 70 8c bd c3 08 59 be
       0.44583607 -0.40288672 -0.068574496 -0.21194749
000220 27 2a 3a 3e 2d ec 08 bf 85 cf b6 3e b1 72 d1 be
       0.18180142 -0.53485376 0.357052 -0.40907815
000230 a4 29 c6 3e 9b 57 3e be 59 64 b7 3e 9b a8 d7 3e
       0.38703644 -0.18588106 0.35818747 0.42120823
000240 be 46 e8 bb bf eb 79 3e 3b 59 4e 3e 8e 56 cb 3e
       -0.0070885113 0.24406336 0.20151226 0.39714473
000250 cf 06 01 be ae 82 7d 3e
       -0.12600254 0.24756882

0.bias f4 [30]
000000 6f 1d 87 bd 6a 51 d5 be b6 ce 99 be 29 23 94 bd
       -0.06597411 -0.41663677 -0.3004052 -0.07233269
000010 c6 e3 a2 be b8 bb a9 be f4 51 21 3e 93 76 24 bd
       -0.31814402 -0.3315103 0.15753919 -0.040152144
000020 56 ff d3 be d1 75 13 bc 06 1f a9 be e0 a1 61 3e
       -0.41405743 -0.009000258 -0.33031482 0.22034407
000030 cd bb b0 be 08 f2 2d 3e d1 d6 aa 3c 9d b7 f7 3d
       -0.3451828 0.16986859 0.020854386 0.12095568
000040 a8 ea 4c 3e 5e c1 25 3e 62 a2 cb 3d 2d 7e 59 be
       0.2001139 0.16187045 0.099430814 -0.21239538
000050 fc 6c 8d be 3a 80 a7 3e e8 63 81 be 13 cb 3d bb
       -0.2762221 0.32715017 -0.25271535 -0.0028960153
000060 fc 67 dc 3e 47 92 88 3e 12 bf c1 3e 52 4f 1c 3d
       0.43048084 0.266741 0.37841088 0.038161583
000070 cc 6f 72 3e 04 50 28 be
       0.2367546 -0.16436774

2.weight f4 [30]
000000 97 08 7d 3f 25 13 7d 3f 66 55 81 3f be a2 7f 3f
       0.9884123 0.9885734 1.0104187 0.998577
000010 00 00 80 3f f1 83 80 3f 8e 9a 7e 3f 45 09 81 3f
       1.0 1.0040265 0.9945458 1.0080954
000020 32 04 7f 3f 78 25 81 3f 7d ed 79 3f fe e8 7b 3f
       0.99615777 1.008956 0.97628003 0.9840239
000030 e1 b1 79 3f d5 c1 8e 3f 10 1f 80 3f 00 00 80 3f
       0.97537047 1.1152903 1.000948 1.0
000040 2a 86 81 3f 73 87 7b 3f 2e f9 7c 3f 5d 6a 7c 3f
       1.0119069 0.98253554 0.9881772 0.985998
000050 2c b0 85 3f 01 d1 7e 3f 0e 3d 83 3f 00 00 80 3f
       1.0444388 0.99537665 1.0253007 1.0
000060 fb e4 7e 3f 45 21 76 3f c0 8d 7b 3f fb f3 85 3f
       0.99568146 0.96144515 0.9826317 1.0465082
000070 9b 77 7c 3f ce f6 76 3f
       0.98620003 0.96470344

2.bias f4 [30]
000000 f6 7d 93 bc c9 90 98 3d fe be ab 3d cf 40 6d 3d
       -0.018004399 0.074494906 0.08386038 0.057923134
000010 83 c4 53 3b 4b d8 61 3d a7 ad 89 3c 61 73 3c 3d
       0.0032313175 0.055137914 0.016806437 0.04600847
000020 86 a0 7a 3d d1 af 65 3d 66 94 fa 3c 03 af 96 3c
       0.061188243 0.056075875 0.03058834 0.018393999
000030 18 05 2f bc 94 dc 5e bb b1 60 f8 3c b7 ac 00 3d
       -0.010682367 -0.0034005987 0.030319544 0.031414714
000040 c9 68 35 bd 63 84 6c 3d 19 ba 06 bc 61 b7 20 bc
       -0.044289384 0.05774344 -0.00822308 -0.009809346
000050 3d 1e 95 3d 8a 12 f7 bc 94 c8 93 bd 40 66 0f 3a
       0.07281158 -0.030160207 -0.072159916 0.00054702535
000060 da 7b 8e bc e4 c2 53 3c e4 68 e2 3b f0 5e 5c bc
       -0.017393041 0.0129248835 0.0069094766 -0.013450369
000070 b6 b0 96 3d d7 06 23 bc
       0.07357924 -0.009950361

2.running_mean f4 [30]
000000 20 a1 5a 42 34 ae 9a 42 71 85 2b 42 48 ac 7a 42
       54.65735 77.34024 42.880314 62.668243
000010 00 00 00 00 89 26 17 41 53 6f 8f 42 1d dd 09 42
       0.0 9.446908 71.71743 34.46593
000020 a7 f1 4c 41 fa 97 3e 42 38 a6 20 42 10 95 33 42
       12.808997 47.648415 40.162323 44.89557
000030 0b 52 34 3f 34 af db 3f 93 cd 72 42 00 00 00 00
       0.7043769 1.7162843 60.700756 0.0
000040 6c 5d 81 3a 25 3f fb 41 a2 a4 b7 41 29 9a ec 3a
       0.0009869761 31.405832 22.955387 0.0018051314
000050 af 4e 07 42 ce fd f1 38 4a 1c ce 41 00 00 00 00
       33.82684 0.0001153905 25.763813 0.0
000060 c0 24 ea 37 20 0c 85 42 12 64 62 3b bf 29 8b 3f
       2.7912087e-05 66.52368 0.003454451 1.0872115
000070 1e f3 b3 42 aa 80 6e 42
       89.97484 59.62565

2.running_var f4 [30]
000000 79 7e bf 45 d0 0f 5b 46 a5 2c ea 44 fb d6 1a 46
       6127.809 14019.953 1873.3951 9909.745
000010 04 00 00 00 47 03 87 43 a7 29 a4 45 7b 60 48 43
       6e-45 270.0256 5253.2065 200.37688
000020 98 e8 f2 43 c9 ad 76 45 a6 24 88 45 46 57 aa 45
       485.81714 3946.8616 4356.581 5450.909
000030 7c 7f 19 42 05 65 80 42 4f 43 1e 46 04 00 00 00
       38.374496 64.1973 10128.827 6e-45
000040 10 91 00 3c 71 3b 98 44 b4 6e a0 44 4e 08 d7 3c
       0.007847086 1217.8575 1283.4595 0.026249077
000050 f2 be d5 43 1f d2 00 3a 24 8f f5 44 04 00 00 00
       427.49176 0.0004914123 1964.4731 6e-45
000060 ad 33 f1 37 d2 b9 1d 46 1c df c4 3d f9 88 0d 42
       2.8753502e-05 10094.455 0.09612867 35.383762
000070 f5 7a 37 46 e5 17 93 45
       11742.739 4706.987

3.weight f4 [30, 30]
000000 22 6e ee 3d df d0 e4 3d 3b 56 4f 3e 5b f7 35 3e
       0.116421 0.111726515 0.20247738 0.1777014
000010 8f f2 fd 3d dc e4 92 bd fd 6e 87 3d 1c 26 86 bd
       0.1239978 -0.07172558 0.06612966 -0.065502375
000020 ba ea ee bd 84 c4 34 3d f6 67 3a bd 4c 7d 0f 3e
       -0.11665864 0.044132724 -0.0455093 0.1401264
000030 0f fb 19 be 21 04 7e 3c be 77 4f 3e ab 0e cf 3b
       -0.15037178 0.015503914 0.20260522 0.006318887
000040 0a 0c 0b 3c 82 7e 69 3e 5f 53 36 be 83 85 45 bc
       0.008486757 0.22802165 -0.17805241 -0.012055757
000050 34 66 56 bd 08 fe 9d 3b 80 7f 7a 3b 1f 6e d0 bc
       -0.052343562 0.0048215427 0.0038222969 -0.025443135
000060 ae a7 2e bc 71 f7 1c bd fb 20 1a bd a0 8d bc 3c
       -0.010660095 -0.038321916 -0.03762911 0.02301675
000070 09 a5 f8 3d 15 56 d6 bd 3d 29 ae 3d c1 9d f9 3c
       0.12140853 -0.104656376 0.08503959 0.03047073
000080 f3 b2 60 be ca e2 9e bd 17 26 45 3d 7a 3b 9a bd
       -0.21943264 -0.077581 0.04813203 -0.075308755
000090 8a b9 34 bd e1 8e 46 bd bc 63 fe bd 12 22 c4 bd
       -0.044122256 -0.048476104 -0.124213666 -0.09576811
0000a0 de b1 23 be 8c 2c 93 bd 18 cd 1b be be 42 1e 3e
       -0.1598582 -0.07186231 -0.15214956 0.15455148
0000b0 63 e3 f5 3c b5 53 d2 bc ae bf 4c 3d b0 aa 94 3d
       0.030015653 -0.02567468 0.049987487 0.072591186
0000c0 32 68 07 bd 4e 7f 05 be 02 cb 28 3e 43 ca 10 be
       -0.033058353 -0.13036844 0.16483691 -0.14139657
0000d0 9e 09 aa bd 3c a6 f3 3d c3 95 06 be 16 3f a7 3d
       -0.083026156 0.11896941 -0.13143067 0.081663296
0000e0 87 3f 2c 3d 44 c7 7f 3d 78 3d 10 3c fc 4f b8 3d
       0.042052772 0.062445894 0.008803718 0.08999631
0000f0 af 4c 1d 3e a1 ab f2 bc 57 e9 19 be a6 3e 42 bd
       0.15361284 -0.029622855 -0.15030418 -0.047423027
000100 57 da 2c 3e 24 1d 63 3c 6a b2 59 3e 9a 48 1a 3e
       0.16880165 0.013861928 0.21259466 0.15066758
000110 1e 15 07 be 4c 86 09 3e 41 2a 68 bd c1 9e 1e be
       -0.1319165 0.13430136 -0.05668092 -0.15490247
000120 40 70 3e bd ac 40 de bc 0c b6 a8 bd b6 4d 27 3e
       -0.04649377 -0.027130447 -0.08237848 0.16338238
000130 c3 0e 16 3e 0a b1 a0 bc d9 09 bc bd 6e 71 07 be
       0.14654069 -0.019615669 -0.09181566 -0.13226864
000140 19 b2 5d 3e 82 87 1a 3e 28 fa ad 3d a8 6c f9 bd
       0.2164997 0.15090755 0.08494979 -0.12178928
000150 0e 8f 41 3b 38 2a e7 3c c1 0d c9 bd ea e0 62 3e
       0.002953473 0.028218374 -0.098170765 0.2215611
000160 79 da e8 3d e7 1b a9 3d 62 02 3d be 53 8c db 3d
       0.11369795 0.08257275 -0.1845794 0.10720124
000170 92 57 19 3e 36 df d3 3c 28 7f da bd 99 4a 8a be
       0.14974812 0.025863271 -0.106687844 -0.27010038
000180 d8 cd 9c 3d f0 57 21 3d bc 51 6d 3d 19 f6 8e 3c
       0.07656449 0.039390504 0.057939276 0.017451333
000190 03 8a 1a 3e fb 3d bd bd d1 bc 83 be e3 50 79 3d
       0.1509171 -0.092403375 -0.25729993 0.060868155
0001a0 a1 f3 ed bc ab bc e3 bd de 6e f5 bd d0 d4 0e 3e
       -0.029046835 -0.1111997 -0.11984037 0.13948369
0001b0 8e 50 1c be 86 38 b7 3d fe d5 9d 3d 2f c5 bb 3d
       -0.15265104 0.08946328 0.077068314 0.09168469
0001c0 7b 6c 63 be 31 2e 86 3d c6 3a ef 3d fe b3 49 be
       -0.22209351 0.06551779 0.11681132 -0.19697568
0001d0 53 54 0f 3e 51 f7 6f be ac ba 14 3e 2c 39 13 bd
       0.13997011 -0.23434187 0.14524335 -0.035943195
0001e0 e3 c6 3f bd 23 98 41 bc 9d eb cd 3d 3b 70 3f bd
       -0.046820533 -0.011816057 0.10054705 -0.04673789
0001f0 60 78 11 3e b1 ea b4 bd 59 b0 c3 3b 98 a7 21 3e
       0.14206076 -0.08833826 0.00597195 0.15786588
000200 84 57 1d 3d 4d 29 01 3d 63 bc 0e be d1 5f 91 3d
       0.03841354 0.031533528 -0.13939051 0.07098354
000210 01 51 3e be 26 8a 98 3d 40 00 43 3b 4d ac 16 be
       -0.18585588 0.07448225 0.0029754788 -0.14714165
000220 43 c6 e6 3b 2e f5 66 3c 13 44 2f 3e 90 5b 80 3c
       0.0070426776 0.014096541 0.17115812 0.01566866
000230 4b b4 f3 3d d8 ff 33 3e ee 95 5a bd 6c c3 5c 3d
       0.118996225 0.17578065 -0.05336564 0.053897306
000240 8c b3 84 3d 5b 8c b5 bc 6a c5 25 bd 68 af 37 be
       0.06479558 -0.022161653 -0.04047147 -0.17938006
000250 2f c1 22 3e af 52 a4 bc 0e ed bc bb b1 60 0a be
       0.15894006 -0.020058958 -0.005765564 -0.13513447
000260 83 41 42 3d ef 76 45 3e 85 ce da bc 6e 89 97 3d
       0.047425758 0.19283651 -0.026709804 0.073992595
000270 0b 4f 29 3e 0e bc 2c 3e f3 e9 b0 3d c5 7b 1f be
       0.16534059 0.16868612 0.08638372 -0.15574558
000280 e9 37 1c 3d 8b 41 5e bd 16 a0 0b be cd 01 c2 3d
       0.038139258 -0.054261725 -0.13635287 0.09473
000290 ea 52 01 3e 77 f7 b4 bd ff d4 3d bd 9e 2f 25 3d
       0.12629285 -0.08836263 -0.046345707 0.040328614
0002a0 7b 8b 26 3e d3 38 fa ba d0 18 4d 3d 98 43 16 3c
       0.16264145 -0.0019090421 0.05007249 0.009171389
0002b0 4c 58 24 3e f6 cc 94 3d ae 31 bd 3d b2 27 21 3e
       0.16049308 0.07265656 0.09237991 0.15737799
0002c0 2c 67 26 3e 87 6e 3f 3e 56 ea a0 3c d8 71 f0 bd
       0.16250294 0.18694507 0.01964299 -0.11740464
0002d0 c3 0d 55 be c4 12 68 be 7b d9 e0 3d 27 49 cf bd
       -0.20806031 -0.22663409 0.10978981 -0.101213746
0002e0 94 eb 6f 3c f5 59 b7 bd 62 dc 55 3d 05 59 ca 3d
       0.014643569 -0.08952705 0.052212127 0.098802604
0002f0 d3 f4 da bd 2e fe 01 bd 2b 58 5a be ef e0 96 bc
       -0.10691228 -0.031736545 -0.21322696 -0.018417804
000300 2d fd 1e be 18 c9 43 3c b5 64 03 bb bb 59 9e bd
       -0.15526266 0.0119498 -0.002004904 -0.077319585
000310 54 50 c9 3c f9 9e c1 bd d3 9d 1e be f0 08 07 be
       0.024574436 -0.0945415 -0.15489893 -0.13187003
000320 63 cb 9e ba 9f f1 7e 3d d7 f1 90 3d 87 96 2f be
       -0.0012115057 0.062242147 0.07077377 -0.17147265
000330 4f 96 e0 3d 29 6d 97 3d f9 4d 17 bd 3b 63 c0 3b
       0.10966169 0.073938675 -0.036939595 0.005871204
000340 ad 6a 0b be 67 e3 90 3d 1e e3 e0 bd f5 d9 36 3e
       -0.13614912 0.070746236 -0.10980819 0.17856582
000350 2a ad 4d bb ec 9a 0f 3e f6 fc 62 bd 45 32 f7 bd
       -0.0031383731 0.14023942 -0.055417024 -0.12070135
000360 a5 78 8d 3c ae bb b3 bd 2d cd 20 3e 04 e8 2e 3e
       0.017269442 -0.087760314 0.15703268 0.17080694
000370 a5 f3 54 bd b8 80 21 bd 86 41 7b bd bb ca 1e be
       -0.05199017 -0.039429396 -0.061341785 -0.15507023
000380 3c 32 b7 bd 58 35 14 be 8f e8 b9 bd c4 91 2b 3d
       -0.08945128 -0.14473474 -0.0907756 0.04188706
000390 8a 5f cf bd ee 44 a1 3c a1 0e ae bd 02 f2 b2 bd
       -0.101256445 0.019686189 -0.08498884 -0.087375656
0003a0 b5 78 0b bc 6c 33 38 be 55 1c 9f bd 47 d9 0d 3e
       -0.0085126655 -0.17988366 -0.07769076 0.13852416
0003b0 92 36 20 bd 0b 84 32 3d 8f b3 4e 3d 1b e1 0d 3e
       -0.039114542 0.043582957 0.05046421 0.13855402
0003c0 67 bf dc 3d c9 41 66 bd 63 47 09 3d d9 46 b4 bd
       0.107786946 -0.05621508 0.033515345 -0.088025756
0003d0 67 8b 94 bd 9f 6f 4f bd f7 a6 ac 3d ea c5 12 be
       -0.072531514 -0.05064356 0.084302835 -0.1433331
0003e0 97 17 17 3e 5e 76 37 3e df a1 e1 bd e2 37 d7 3d
       0.14755093 0.17916247 -0.110172026 0.10508706
0003f0 21 3d dc bd 4c 0e 5c 3d e5 ca a4 3b 78 d2 20 be
       -0.10753847 0.053724572 0.0050290697 -0.15705287

3.bias f4 [30]
000000 df 19 ae bd 9e 22 42 be 97 6d 13 be 75 81 a3 bc
       -0.08501028 -0.18958518 -0.14397274 -0.01995919
000010 19 54 96 bd be 44 0a bd 8d 1e f9 bc fb 69 f2 3d
       -0.07340259 -0.033756964 -0.030410076 0.118366204
000020 2b 2a 3f bd 88 80 63 bd bb 35 e5 bc 69 36 95 bc
       -0.046671074 -0.0555425 -0.027979722 -0.018214421
000030 62 df 0f be a6 a0 c8 3d 34 72 02 be 4c 2e 16 3b
       -0.14050058 0.09796266 -0.12738878 0.0022915779
000040 6e 71 e6 bd 7d 88 32 3e e8 37 b6 bd d6 34 01 be
       -0.11252104 0.17434879 -0.08897382 -0.12617812
000050 f2 da 14 3e 6b 0b b9 3d ec 87 1e be 40 cf 73 3d
       0.14536646 0.09035381 -0.15481538 0.05952382
000060 4e 92 0b 3e 40 66 de 3d 6b dc b4 3c dc b8 58 bd
       0.1363003 0.108593464 0.02207776 -0.05291067
000070 85 e7 51 3d 67 b2 ff 3d
       0.051246185 0.124851994

5.weight f4 [30]
000000 f9 72 83 3f 97 84 7c 3f 9e e9 6f 3f ce 3f 7c 3f
       1.0269462 0.98639816 0.93715847 0.9853486
000010 66 3b 6f 3f b0 60 7a 3f 18 f7 75 3f df c8 83 3f
       0.9345001 0.97803783 0.9608016 1.0295676
000020 e0 9e 81 3f 36 ad 82 3f b6 12 72 3f 63 9d 7e 3f
       1.012661 1.020911 0.945598 0.99458903
000030 7b 4a 83 3f 70 32 82 3f f1 bd 7b 3f 2d ec 7d 3f
       1.0257105 1.0171642 0.983367 0.991885
000040 4c 05 85 3f 6a c2 7e 3f ac 8d 85 3f be 99 7c 3f
       1.0392241 0.995154 1.043386 0.9867209
000050 30 3e 7a 3f e4 14 76 3f 0e ea 77 3f 44 4a 7c 3f
       0.9775114 0.96125627 0.96841514 0.9855082
000060 83 9d 80 3f 93 2b 83 3f b7 26 80 3f e0 df 7d 3f
       1.0048069 1.0247673 1.0011815 0.9916973
000070 75 62 8d 3f 55 36 76 3f
       1.1045672 0.96176654

5.bias f4 [30]
000000 c8 50 cb 3c a4 bb 97 3d 26 5e 8f 3d 8d 12 b4 3d
       0.024818793 0.074088365 0.07000379 0.08792601
000010 50 a8 1f 3d 2a 70 e2 bc 7d 97 76 bd 1b a4 6b 3d
       0.038978875 -0.027641375 -0.060203064 0.05752955
000020 1f 87 88 bd 67 6f e4 3d 38 dc 69 3d 09 a5 9b 3d
       -0.06666397 0.11154061 0.057094783 0.07599837
000030 06 98 80 3d c1 7b e2 3c cf d4 34 bd dc 5c 88 3c
       0.06278996 0.027646901 -0.044148263 0.016645841
000040 d2 d2 7a 3d 08 1b 8b 3c 02 3c fa bd 7b c1 e7 3d
       0.06123621 0.016980663 -0.12218477 0.113162
000050 13 7f 5f 3b 2b 38 77 3d 15 b5 06 bd 73 5c af 3b
       0.0034102842 0.0603563 -0.032887537 0.005351597
000060 c9 d6 ca 3d 38 f7 5b bd 47 40 c9 3d 61 62 bd 3d
       0.09904248 -0.053702563 0.09826713 0.0924728
000070 23 95 8e bb d1 a2 c9 3d
       -0.0043512746 0.09845508

5.running_mean f4 [30]
000000 2b ad b8 3e 32 76 de 3d 4d 88 04 3e 69 58 48 3e
       0.36069617 0.10862388 0.1294262 0.19564976
000010 72 de 06 3e ae 5a ca 3e 87 d7 be 3e 9d 42 80 3e
       0.13170794 0.39522308 0.3727381 0.25050822
000020 28 62 12 3e 9e 7d e1 3d 5b 6d 68 3e 88 44 df 3d
       0.14295256 0.11010288 0.22697966 0.10901743
000030 cf 33 dc 3e 59 1a 7c 3e c6 b5 91 3e 05 81 13 3e
       0.43008277 0.24619426 0.28458995 0.14404686
000040 de c9 d2 3d 97 a2 d2 3e 9e fc 8e 3e 07 32 c1 3e
       0.10292409 0.4113967 0.27927107 0.3773348
000050 a0 05 6e 3e 32 6c 25 3e 01 c5 83 3e b6 34 a8 3e
       0.23244333 0.16154554 0.2573624 0.32852715
000060 5c 51 d9 3e bc 06 94 3e 21 eb 82 3e b6 e4 77 3e
       0.42444885 0.28911388 0.25570014 0.2420834
000070 6f 1d 62 3f ea e8 82 3e
       0.8832616 0.25568324

5.running_var f4 [30]
000000 43 66 ca 3e 4f c8 b1 3d 66 3a 70 3e 1a 4e 08 3d
       0.39531144 0.08680784 0.23459777 0.03327761
000010 3b 7b b9 3d f3 47 cc 3e 1a d1 84 3d b5 96 3e 3e
       0.090567075 0.39898643 0.064851955 0.18612178
000020 bf c5 91 3d 05 0b 4f 3e c6 cd cf 3c e1 34 7b 3e
       0.07117795 0.20219047 0.025366675 0.2453189
000030 a5 58 1a 3f 4e 15 03 3e 15 f1 6a 3e a3 35 80 3d
       0.6029151 0.12801096 0.22943528 0.062602304
000040 2d 1b 1d 3d 5e 22 f4 3e d7 b9 14 3d 80 68 bf 3e
       0.038355995 0.4768247 0.036310043 0.37384415
000050 83 55 32 3e ba 66 92 3d d6 d6 5a 3e a3 0c 9e 3e
       0.17415433 0.071485 0.21371016 0.30869016
000060 a7 54 fa 3e b2 da 1e 3d 32 66 49 3e 7b 3a 3c 3e
       0.4889271 0.038782783 0.1966789 0.18381684
000070 c4 6d ce 3e 2a 8d e6 3c
       0.4031812 0.028143484

6.weight f4 [30, 30]
000000 92 52 78 bd a3 93 ea bd f1 95 12 3e 05 c1 88 3b
       -0.06062562 -0.11453941 0.1431501 0.0041734003
000010 49 a5 15 be f4 34 4f be ce c8 f6 bd e6 0a e4 bc
       -0.14613833 -0.20235044 -0.12050019 -0.027837228
000020 a0 d7 12 3e ea 68 c8 bd 5b f8 81 bd 9b 79 d6 bd
       0.14340067 -0.09785636 -0.06346198 -0.10472413
000030 36 77 f4 ba f0 cd 18 3e 16 98 24 3e f4 72 5a be
       -0.001865125 0.14922309 0.16073641 -0.21332914
000040 6a 3a 0a be 3e 12 f4 3d e9 f2 2f be 7e 81 39 be
       -0.13498846 0.11917542 -0.17182507 -0.18115804
000050 8f c9 72 bd ec 82 56 3d a9 ab 11 3c 3a 70 ea bd
       -0.059274253 0.05237095 0.008891025 -0.11447187
000060 79 c1 9d 3d c5 2d 34 be bf b2 a6 bd 38 4d b6 bd
       0.077029176 -0.17595585 -0.08139562 -0.08901447
000070 e5 88 77 3d 06 a3 ab 3d a6 65 eb 3c 36 33 5f bc
       0.060433287 0.08380704 0.028734993 -0.0136230495
000080 1b ae 32 3e 91 0a d5 3d 6e 29 f7 bd 01 24 37 3d
       0.17449228 0.10402406 -0.12068449 0.04471207
000090 30 70 3b be fb 04 b4 3d ca c4 2c be e0 e4 3d 3e
       -0.18304515 0.087900124 -0.16871944 0.1854434
0000a0 a7 af 19 3e 5e 63 d1 bc 10 3b be bc 3e 82 e6 bd
       0.15008412 -0.025560077 -0.023221523 -0.112553105
0000b0 d4 1f 87 3c 6c 98 39 be 4c 6b 56 bd 64 12 25 3c
       0.016494669 -0.1812455 -0.05234842 0.010075185
0000c0 8b bd 53 3d ee 97 23 3d f8 68 1a 3e cd c1 9f bd
       0.051694434 0.039939813 0.15079105 -0.078006364
0000d0 72 bb c2 3d a7 3e e4 3d 22 fc 4f 3d b2 48 2c 3e
       0.095084086 0.111447625 0.050777562 0.16824606
0000e0 1a e3 6d bd 37 d9 26 3e 95 15 d2 bd 7f 3e 42 be
       -0.05807791 0.16293798 -0.10258023 -0.18969153
0000f0 94 ac 27 3e a5 77 e1 3d 04 b8 0c 3e 98 ed 46 3d
       0.16374427 0.110091485 0.13742071 0.04856643
000100 72 43 21 3e a6 a6 fd 3d 57 e8 2f bd 93 d5 23 bd
       0.15748385 0.12385301 -0.042946186 -0.039998602
000110 15 c4 bc bd ee 51 e1 3d 06 30 b9 3d 67 ee 8e bd
       -0.09217087 0.11001955 0.09042363 -0.069790654
000120 fc 61 e4 3d ea 5d c8 bc 4b 74 ad bd a4 bb 1a be
       0.111515015 -0.024458844 -0.08469447 -0.15110642
000130 26 ee 95 bc d4 8d e5 bd f8 71 d5 bc 79 36 57 bd
       -0.018302035 -0.11208692 -0.026055321 -0.052542184
000140 68 a0 8a bd 68 d8 05 3d e7 9d 09 be d5 7f 37 be
       -0.06768876 0.032677084 -0.13439141 -0.17919858
000150 2d 9c 30 3d 1a 0c 39 be 95 7d 75 bd 94 08 ee bb
       0.04311769 -0.18071023 -0.059934217 -0.007264206
000160 9a ee 50 be 7f 86 cd 3c 0a 93 bd bd 3a 00 26 3d
       -0.2040352 0.025088547 -0.09256561 0.04052756
000170 99 d6 81 3c 3e 91 4b 3e 88 82 17 bd e7 28 9e bd
       0.015849398 0.19879624 -0.03698972 -0.07722645
000180 9f 50 fd bd 9b 4d d6 3d 88 42 c6 bd 88 c8 13 be
       -0.12368893 0.10464021 -0.096806586 -0.14431965
000190 89 52 c7 bd 3e be d4 3d c7 48 3c 3c 86 7b 45 bd
       -0.09732539 0.10387848 0.011491961 -0.048213504
0001a0 7c 15 c5 bd 55 35 0d be b3 d2 cf 3d 8f 3d 4c 3d
       -0.096232384 -0.13789876 0.101476096 0.049863394
0001b0 08 da 40 bd 55 85 e4 bb e7 2c 92 3c ad 5a f4 bd
       -0.04708293 -0.006973902 0.017843677 -0.119313575
0001c0 19 0b 8b bd b7 ff ca 3d 1d b7 0b be 39 e8 7c 3d
       -0.06789226 0.09912055 -0.13644071 0.061744902
0001d0 a3 23 9e bd 96 a0 1d be 3f c1 cf bc a8 cc 0c be
       -0.07721641 -0.1539329 -0.025360702 -0.13749945
0001e0 07 5e f0 3d b6 5e 3b 3e c9 fc e6 3d f7 01 5e 3d
       0.11736684 0.18297848 0.11278684 0.054201093
0001f0 1b 47 31 3d e1 a9 9c 3c 6c 4e 51 3d f3 ab 82 3d
       0.043280702 0.019123973 0.05110018 0.06380453
000200 3a 57 4b 3e ca f5 a1 bd 09 f5 20 3e 4d 8d f3 bc
       0.19857493 -0.07908209 0.15718473 -0.029730463
000210 c4 2c 4e bd 7f ce b1 3d 7f c0 49 be 34 24 d1 3c
       -0.05033566 0.08681964 -0.19702338 0.025529958
000220 2f 1a 4d 3e 88 48 20 bc f5 ea 22 bd aa 47 2e 3e
       0.2002952 -0.009782918 -0.039774854 0.17019525
000230 6d ce 51 3c 19 73 b9 3d 7d 24 b7 bd cc 13 4d bd
       0.012805563 0.09055156 -0.089425065 -0.050067708
000240 42 b2 3e bd c5 72 fb bd c8 e9 e1 3d e0 9d 01 3c
       -0.04655672 -0.1227775 0.11030918 0.0079111755
000250 f8 ac b0 3d 49 b7 30 3e 2c 77 3b be c9 d5 72 3c
       0.08626741 0.17257418 -0.18307179 0.014821478
000260 43 ef 80 3d 33 46 43 3e f8 18 42 be be 79 b5 3d
       0.062956356 0.19069748 -0.18954837 0.08861111
000270 28 7f e4 3d 83 ad 65 3c 10 d2 19 be 97 51 29 bd
       0.11157066 0.014018419 -0.15021539 -0.041337576
000280 09 16 88 bd 1a fc 89 bd 01 52 de 3d a8 4d ff bd
       -0.06644828 -0.06737538 0.10855485 -0.12465984
000290 77 8b f3 bd 15 13 2f 3e 6f 17 9b 3d 31 af c5 3d
       -0.11891835 0.17097123 0.07572829 0.09652556
0002a0 c1 6a 5c bd a6 4a 28 bd bd 46 35 be 8d e2 96 bd
       -0.053812746 -0.041086815 -0.17702766 -0.0736743
0002b0 6b e1 63 3d 9a 8d bb 3c a8 1e e6 3d 63 93 ce bc
       0.055634897 0.02289467 0.11236316 -0.025216764
0002c0 18 31 d9 bc 35 d0 d6 3d 4a e2 ed bd 8b 17 53 bd
       -0.026512668 0.10488931 -0.11615427 -0.051536124
0002d0 06 f8 81 3e 8c 6e 1f be e5 37 af bd 73 2c 2c bd
       0.2538454 -0.15569514 -0.08555583 -0.042034578
0002e0 4c 54 b4 bd 92 db 20 3e cf a7 b4 bd c2 8d a6 3b
       -0.08805141 0.1570876 -0.088210694 0.005082817
0002f0 e3 63 64 bd 2a 45 08 bd d7 01 ca bd 64 59 19 be
       -0.055759322 -0.033269085 -0.09863632 -0.14975506
000300 ae 1f 21 be c7 7d 28 be df ba 4d bd c2 e8 de 3d
       -0.15734741 -0.1645423 -0.050227042 0.10884239
000310 4e 10 08 be 2d a7 36 3e 35 db 04 3e 10 55 2b bc
       -0.1328747 0.1783721 0.12974246 -0.010457292
000320 fe 79 b3 bd 18 ff c2 bd 22 7e dc bd 5d db 8d 3d
       -0.087635025 -0.095213115 -0.107662454 0.06926606
000330 87 ba 6a 3d a0 ff 0c be 27 3c 06 bd 7c 44 88 bd
       0.057306793 -0.13769388 -0.03277221 -0.06653687
000340 9f ab 04 be 66 cc 87 3d 75 81 c9 bd ef d2 05 3d
       -0.12956093 0.06630783 -0.09839145 0.032671865
000350 3c e3 85 3d 02 12 bf bd 5c e2 14 3e ff 08 a2 bd
       0.06537482 -0.093296066 0.14539474 -0.07911872
000360 7a 5b 96 3d 08 5f fe 3d 86 fb d6 3a b9 d7 76 3d
       0.073416665 0.124204695 0.0016401864 0.060264323
000370 c5 77 0f be d1 64 9f 3c 71 a2 8f 3d d9 e6 39 be
       -0.14010532 0.019457253 0.07013405 -0.18154468
000380 1a 75 a7 bd 7c 7a da 3c 4c d6 17 3e b5 5d 2f 3d
       -0.08176632 0.026669733 0.14827842 0.042813975
000390 fe 8c 15 be 63 ee 0b 3e 12 f4 e4 3d 66 a6 c1 bc
       -0.14604566 0.13665156 0.11179365 -0.023638915
0003a0 d0 76 11 be 65 6e d8 3d fd f2 a4 bd 3e ee ad 3d
       -0.1420548 0.10567931 -0.08054159 0.08492707
0003b0 f6 52 86 3d 9b a4 39 3e ee 1c 57 bd 3d f5 04 3e
       0.06558792 0.18129198 -0.052517824 0.12984176
0003c0 d6 9f ff bd 5d 36 eb 3d 99 28 81 3d 38 bf 43 bc
       -0.12481658 0.11484978 0.063065715 -0.011947446
0003d0 bf 9b 95 bd 62 b1 0c be 14 bd f3 bd f6 52 23 3e
       -0.07305097 -0.13739541 -0.11901298 0.15949616
0003e0 3b 33 9a 3d 59 e0 9f ba 17 64 9b bc 04 e9 1d 3e
       0.07529303 -0.0012197598 -0.018968625 0.1542092
0003f0 5c b1 bf bd 6c ca 27 be 0f 50 53 bb 60 41 dd 3d
       -0.093600005 -0.16385812 -0.0032243764 0.10803485

6.bias f4 [30]
000000 5c 5d 2d bd 42 d8 b9 bc e1 98 b8 3c 0d 92 0e 3e
       -0.042325363 -0.022686128 0.022533836 0.13922901
000010 8e f1 95 bd 69 70 b3 bd 2e b8 cc bd 3b 47 16 be
       -0.073214635 -0.08761675 -0.09996067 -0.1467561
000020 3b 73 34 3e 05 4b 6a bd 17 6c f9 bd a4 42 87 3c
       0.17622082 -0.05720045 -0.121788196 0.016511269
000030 a2 39 ba 3d e8 e1 2b 3e e1 43 4c bd 20 94 e1 bc
       0.09093024 0.16785395 -0.049869422 -0.027536452
000040 f9 15 3d bd 40 8a 08 be d5 f6 23 be a1 4d c5 be
       -0.046163533 -0.13333988 -0.16012128 -0.3853579
000050 84 4c a1 bd 8b 6c 25 3e 0e 9e 26 bb 07 44 85 3d
       -0.07875922 0.16154687 -0.0025423798 0.06507116
000060 d5 28 f2 bd 13 a9 02 be c7 cf 3e 3d d6 f3 5a 3d
       -0.11824194 -0.12759809 0.04658487 0.053455196
000070 1a 0d 17 be ea 41 4e be
       -0.14751092 -0.20142332

8.weight f4 [30]
000000 77 25 79 3f 7f f0 77 3f 7d df 78 3f 27 55 7a 3f
       0.9732279 0.9685134 0.97216016 0.9778618
000010 30 fe 75 3f 5e 53 79 3f 7c d8 74 3f d7 1c 7c 3f
       0.96090984 0.97392833 0.9564283 0.98481506
000020 c8 36 7d 3f a1 e5 7a 3f dc 25 7c 3f 3c da 7d 3f
       0.98911715 0.98006636 0.9849527 0.99161124
000030 7f 4a 81 3f 42 65 7c 3f 78 47 6f 3f 12 16 79 3f
       1.0100859 0.9859201 0.9346843 0.972993
000040 91 bd 7d 3f d9 58 7a 3f e9 88 7b 3f dd ae 7f 3f
       0.9911738 0.9779182 0.98255783 0.99876195
000050 83 65 7c 3f 08 78 7a 3f 14 6e 7d 3f 74 61 6c 3f
       0.98592395 0.97839403 0.9899609 0.923362
000060 8a e4 7e 3f 9b 24 7d 3f 3b 9e 77 3f 30 7f 7a 3f
       0.9956747 0.9888398 0.96725816 0.9785032
000070 65 a9 78 3f fa 47 79 3f
       0.97133476 0.9737545

8.bias f4 [30]
000000 01 1d a1 bd a7 d8 13 3d 73 4f 72 3e fe 14 8a be
       -0.0786686 0.036095288 0.2366312 -0.2696914
000010 ca 5a 24 be c0 43 a1 bd 59 b0 23 3f 3b e3 85 3d
       -0.16050258 -0.078742504 0.6394096 0.065374814
000020 b5 47 8a 3c 26 a1 2b 3e c1 34 53 3d 23 21 5e be
       0.016879896 0.16760692 0.051563982 -0.21692328
000030 ff 21 87 be 73 ba 5d bd 68 b8 dd 3e 11 95 88 3e
       -0.26393124 -0.05413289 0.43304753 0.2667623
000040 67 ce 08 3d c9 cb 6b 3e 02 59 fb be a9 ab 8a be
       0.033399966 0.23026957 -0.49091345 -0.2708409
000050 2e 6c ef bd 38 e3 34 3d af d7 ad bb 4e 5e d5 3e
       -0.116905555 0.044162005 -0.0053052525 0.4167351
000060 3b ce b6 be 64 24 c0 3e 86 7b 7f 3d 5f 51 a9 bd
       -0.35704216 0.37527764 0.06237366 -0.082674734
000070 ce b2 3b 3e b1 90 17 3f
       0.18329927 0.59205157

8.running_mean f4 [30]
000000 c2 d2 05 3e 81 f4 0d 3e bf 8e 23 3e 81 2b 7a 3e
       0.13068679 0.13862802 0.15972422 0.24430658
000010 05 1f c5 3d 05 3d 31 3e a9 8f 6f 3e 29 59 7d 3e
       0.09625057 0.17308433 0.23394646 0.24741043
000020 85 6a 86 3e f7 d3 32 3e 08 f0 82 3d 8a 20 51 3e
       0.26253143 0.1746367 0.063934386 0.20422569
000030 62 65 76 3e a7 e4 de 3e f2 06 d2 3e dd a5 13 3e
       0.24062112 0.43533823 0.41020924 0.1441874
000040 2a 00 ec 3d 23 aa 98 3e ba 47 c5 3e 5c 6d 19 3f
       0.11523469 0.29817304 0.38531286 0.59932494
000050 c4 2a 79 3e f4 d6 2c 3f 0a 91 47 3e d2 d9 b8 3e
       0.2433272 0.6751549 0.19488922 0.36103684
000060 81 f3 06 3f 4d 90 a0 3e c8 5a 13 3e 59 27 12 3e
       0.5271531 0.31360093 0.14390099 0.14272822
000070 3f 3b 83 3e 23 9d bf 3e
       0.2563114 0.37424573

8.running_var f4 [30]
000000 7f e4 2b 3d ef 34 e2 3d 57 7b 77 3e bf 64 26 3d
       0.041965958 0.110452525 0.24168144 0.040623423
000010 f7 6c c3 3d 34 d3 be 3d 7f 30 29 3e eb ed 2b 3e
       0.09542268 0.093176275 0.16522406 0.16789977
000020 59 b6 90 3d f1 10 04 3e 29 c1 5b 3d 2f 9d 07 3e
       0.0706603 0.12897088 0.05365101 0.13243555
000030 94 ce 50 3e e5 b8 ff 3e 5f d3 04 3f 4a d5 84 3d
       0.20391303 0.4994575 0.51885027 0.06485994
000040 e1 29 39 3d 3f 89 8c 3e 81 a2 d7 3e 96 09 60 3e
       0.045205954 0.2744846 0.42116168 0.21878657
000050 2b b1 55 3e 23 70 a4 3f 1f fa c4 3d 34 93 cc 3e
       0.20868365 1.2846721 0.09618019 0.39956057
000060 81 3f 4e 3f c7 0b 67 3d 7e d3 c5 3c e1 41 31 3e
       0.8056565 0.056407716 0.024148699 0.17310287
000070 81 8a 47 3e ef 6e e7 3e
       0.19486429 0.45201823

9.weight f4 [6, 30]
000000 fa 87 33 bd a6 11 53 3d 1e 60 17 3d fe 8f 53 bd
       -0.04383085 0.051530503 0.0369569 -0.051650994
000010 42 6d 1b be 05 55 05 be cb e9 b8 3e 18 94 d9 bc
       -0.15178397 -0.13020714 0.3611587 -0.026559874
000020 91 7c 1f be bd 0c 58 3e 4d 9d 9f bc f6 3c 1e be
       -0.15574862 0.2109861 -0.019484187 -0.15452942
000030 87 ac c4 be b9 71 4e 3d 42 5d 00 3e 07 c6 3d 3e
       -0.38412878 0.050401423 0.12535575 0.18532573
000040 15 5e 72 3e 18 01 88 3e 10 68 8c be 96 e6 56 be
       0.23668702 0.26563334 -0.27423143 -0.20986399
000050 0d aa 42 be f3 90 df ba 49 5b be 3c c0 12 26 3e
       -0.19010182 -0.0017056748 0.023236888 0.1621809
000060 79 e9 9b be 3c db d4 3e c3 49 ba bd dc 12 af bd
       -0.30451563 0.41573513 -0.090961 -0.08548519
000070 5a 09 82 3d bd 1a f7 3e b9 2b b0 3d 6b d0 34 bb
       0.0634944 0.48262587 0.086020894 -0.0027590047
000080 d6 ed d9 3d 4e 70 59 be a4 60 9c bc 3f 47 d4 bd
       0.10641067 -0.21234247 -0.01908905 -0.103651516
000090 81 5f 3d 3e 13 5f 17 be 1a 61 ea bc 38 2e 3c 3d
       0.18493463 -0.14782362 -0.028610755 0.045942515
0000a0 c9 75 50 bd 05 42 26 bd 9b 8f 6c 3d ad e3 fd bd
       -0.05089358 -0.040590305 0.05775414 -0.12396941
0000b0 88 67 30 3e c3 d6 70 bd 14 f1 ba bd ba 78 35 3e
       0.17226994 -0.058798563 -0.09128013 0.17721835
0000c0 dc 85 c3 bd b7 66 9b 3b 68 f5 8e bd fe ea 1c be
       -0.09547016 0.004742469 -0.06980401 -0.15324017
0000d0 25 15 a1 bd 18 2c 26 3e 98 ed 4a bd 35 3f 21 3e
       -0.07865361 0.16227758 -0.049542993 0.15746768
0000e0 09 4d 4c 3d c5 37 13 be b5 1e 2b 3e 73 76 97 3e
       0.049878154 -0.14376743 0.16710933 0.29582557
0000f0 01 4c 62 bc c1 95 ed ba 66 2c 4b be 9e 11 0b 3e
       -0.013812066 -0.0018126295 -0.19841155 0.13580939
000100 91 ab 27 3d d7 e4 66 3c bc 3d ce be ca 19 30 be
       0.040935103 0.014092646 -0.40281475 -0.17197338
000110 79 c9 a8 bd 29 d6 7a 3c c2 ba db bc b9 f0 85 3e
       -0.08241553 0.015309849 -0.026822452 0.2616022
000120 73 c6 5a 3e eb 40 e8 3d 4f 68 a0 be f0 ba ab bd
       0.21364765 0.11340507 -0.3132958 -0.08385265
000130 dc 99 d5 3d 41 41 dc 3d bd 72 b3 3e 77 b3 2f 3e
       0.10429737 0.10754634 0.35048476 0.17158304
000140 31 57 31 3e 21 c5 ab bd 4f 17 3d bd 8a 16 89 be
       0.17318417 -0.08387209 -0.046164807 -0.26775008
000150 37 a6 51 3e f7 2a 63 bd f4 fe b3 bc 55 45 ae 3c
       0.20473562 -0.055460896 -0.021972157 0.021273294
000160 c3 21 bd bd ca d4 4c be f4 62 11 3e 7b 31 39 bd
       -0.09234955 -0.20003048 0.14197904 -0.045213204
000170 f4 61 84 bd 79 cd 33 be 32 1c 2d 3e 71 65 06 be
       -0.064639956 -0.1755885 0.16905287 -0.13124634
000180 11 08 fc bc 2d 91 5b bd 9c 09 da 3c 31 f7 b6 3c
       -0.030765565 -0.053605247 0.02661591 0.022334667
000190 66 51 ac bd 9a 1d 94 bc 9f da 05 3d 2a 4f 5e bd
       -0.08413963 -0.018080521 0.032679196 -0.054274715
0001a0 d1 3a 21 bd f7 e9 2b be 58 91 11 3e aa 62 62 3b
       -0.039362732 -0.1678847 0.142156 0.0034543672
0001b0 49 e3 87 3d ee 99 8e 3e e8 0a 2b 3d c3 66 78 bd
       0.06635148 0.27851814 0.041758448 -0.060644876
0001c0 d3 04 30 3e f9 cb be 3d a6 30 6a 3e 47 08 ae bd
       0.1718934 0.093162484 0.2287012 -0.084976725
0001d0 d6 14 59 bb f7 15 5e bc 56 15 35 3e 79 7d 74 be
       -0.0033123991 -0.0135550415 0.1768392 -0.23875989
0001e0 4b a1 07 3e e8 0e a0 3d 1f 61 1c 3e d7 90 f1 bd
       0.13245122 0.07815343 0.15271424 -0.11795204
0001f0 58 36 dd bd 9e a4 00 bd 55 dd 5a 3e 99 b0 6e bd
       -0.10801381 -0.03140699 0.21373494 -0.058273885
000200 b0 3e 09 3e 77 b1 e4 3d e8 d2 5a 3c d9 c6 99 3d
       0.1340282 0.11166661 0.013355948 0.0750863
000210 02 e0 02 bd c2 be c3 3b b6 93 ae 3c 94 9e 14 3e
       -0.03195191 0.005973668 0.021310668 0.14513618
000220 22 64 c6 bd d6 8f 11 3c 98 4f ac bd b7 21 45 3e
       -0.096870676 0.008884391 -0.08413619 0.19251142
000230 7c 08 26 3d 21 b6 9e 3b e1 60 01 3e 3b 04 87 bc
       0.040535435 0.004843489 0.12634613 -0.01648151
000240 e3 ec 1c 3c 2d 0a 98 3d f6 e7 b8 bc 6d a1 3e 3d
       0.009577963 0.07423816 -0.022571545 0.046540666
000250 84 42 81 ba 5d 49 ce bd 2a 6f aa bc 77 cb f8 bc
       -0.0009861742 -0.10072587 -0.02080496 -0.030370457
000260 5c 42 40 be 81 eb 67 3d 59 e9 b4 bd ef 31 c4 bd
       -0.18775314 0.05662108 -0.0883357 -0.095798366
000270 a5 1d 78 be 52 fe 1d 3e 49 1b 92 bb f7 fe 32 3d
       -0.24230058 0.15429047 -0.004458819 0.043700185
000280 cb 25 3d be 47 60 b2 3d fc 31 e2 bc 98 01 36 3e
       -0.18471448 0.0870977 -0.027611725 0.17774045
000290 c8 30 ae bd b3 3d fe bd e3 8a 63 bc 4a 08 43 bd
       -0.08505398 -0.12414112 -0.013888094 -0.047615327
0002a0 1a d1 97 3e 53 31 91 3d 7e b3 87 bd 3d 1b 43 3d
       0.2965172 0.07089486 -0.06626032 0.0476334
0002b0 cb 9a 1c 3e fe 9e f9 bd 01 d9 72 3e e0 51 7b bd
       0.15293424 -0.121885285 0.23715593 -0.06135738
0002c0 4c ac 9c bd c6 57 0e be c2 6f 07 be 94 ed e9 bc
       -0.076500505 -0.1390067 -0.13226226 -0.028555669

9.bias f4 [6]
000000 99 b9 b0 3f 8e fe 9b 3e 67 9d 88 bf db ee e7 be
       1.380664 0.30467647 -1.0673035 -0.4529942
000010 48 29 81 3e 55 91 c5 be
       0.25226808 -0.38587442
