FBIproject/fbiapp/script/model/pretrained_냄새.pt (torch, 17662 bytes, 20 tensors)

0.weight f4 [30, 5]
00000000: a1d1 d03e 27b4 703e f941 c3bd 3c70 e03d
00000010: bcfa 45bd 1cb7 b5be 2d38 453e e47f 8abd
00000020: 613e 7c3e 70d1 cfbe 4771 073e dc74 cc3c
00000030: 3ee6 c6be 6482 34bd ae92 06bd 7149 e13d
00000040: 34fe b8be 4c54 f13c 14d3 893e bef7 443e
00000050: e166 be3e 178e 4f3e c318 f8bd 7ac7 9a3d
00000060: b64c 83be f28d 863d 4af5 ff3c db69 8bbe
00000070: d99b 873e c387 05be b5e8 7ebd 9e6d 09be
00000080: cf22 db3e 93fc d5be eae6 b03e 1874 a4be
00000090: 92b9 bbbe 568b c23e d0df b2bd 6f1a c7be
000000a0: 8390 de3e 167c 3dbe 3c6c 9bbd d95d 84bd
000000b0: a08f c1be e9a6 b03d 7855 893d e446 8e3e
000000c0: 9ec2 cfbe be54 63be 948a e73e c28d 29be
000000d0: c558 173d eb62 363e 2f11 e3b9 212b 32be
000000e0: 8cbe 2bbe 1588 013f 8910 acbe 1e8e dabe
000000f0: 2c24 9abe 261d 9c3e 5f2c ba3d b285 8fbe
00000100: 250a a5be d923 2fbb 3556 c5be 3e38 e83d
00000110: 1cbf b9bd 8588 0abe cdc5 cb3d 039c 5bbd
00000120: 25e9 dd3e 1705 6cbe 70d9 d3be ae88 bcbe
00000130: 9648 4abe 500f 3b3e cc6a a03e 3652 833e
00000140: 039d cc3e 935c cebd 3363 9f3e 0c6e 96be
00000150: 6f32 d4be d4c7 b2be debc 023e 89c3 a33e
00000160: c627 10be 9e1b 113d e1b0 b0be 0946 1dbe
00000170: 6ad6 12be f964 933e b37e ccbe 0ea7 00be
00000180: 7eb2 04bd 38b1 fc3e aec7 acbd e287 9cbd
00000190: d616 b13e f6ef 3b3e 486d b4be ff81 d53e
000001a0: 9704 adbd 5e1f 483e f154 f3be db5b bd3d
000001b0: 5b5a b8be af8a babe 0250 873d fbed aa3e
000001c0: f8a4 963e 39d9 43bd 121e d33e b616 9dbe
000001d0: 9658 9ebe b9df b43d 9212 6b3e 373a b53e
000001e0: 44fa 34be b60d dfbe 9dca e1be 5e7c ed3d
000001f0: 8187 d8be 7f1d 953e f449 603e eb68 cebd
00000200: d983 ad3e 2df3 cb3e b770 b03e 7904 273d
00000210: 95ef d73e f42e a3be c091 b1be 1222 7cbe
00000220: 1133 0a3c d47f db3c 4061 63be 63fd bdbe
00000230: 5322 0dbe 8823 c23e 5d2f 75bd f39c 8bbe
00000240: a8ff d4be b34e 0cbe c818 6fbc 87a5 cbbe
00000250: 2e28 b4be ddb3 d2be
0.40784934 0.23506223 -0.09534068 0.10958907 -0.048334822 -0.35491264 0.1925971 -0.067626745
0.2463317 -0.40589476 0.13226806 0.024958067 -0.38847536 -0.044069663 -0.03285473 0.11000336
-0.36131442 0.029459141 0.26918852 0.19235131 0.37187865 0.20269047 -0.12114098 0.075575784
-0.25644463 0.06570043 0.031244893 -0.272292 0.2648609 -0.1304007 -0.062233645 -0.13420722
0.42799994 -0.4179426 0.34551173 -0.32119823 -0.36665016 0.3799693 -0.08734095 -0.38887355
0.4346963 -0.18504366 -0.075890034 -0.064632125 -0.3780489 0.086255856 0.06705755 0.2778846
-0.4057817 -0.22200295 0.45222914 -0.16557983 0.03694989 0.17811172 -0.00043309617 -0.17399265
-0.16771907 0.5059827 -0.33606365 -0.42686552 -0.30105722 0.30490988 0.09090494 -0.2803169
-0.32234302 -0.0026724248 -0.38542333 0.11338852 -0.09069654 -0.1352864 0.09949837 -0.05361558
0.43341938 -0.23048817 -0.4137683 -0.36823028 -0.19754252 0.1826756 0.3133148 0.2564866
0.3996354 -0.10076251 0.3113037 -0.29380834 -0.41444728 -0.34918082 0.1276736 0.3198512
-0.14077672 0.03542673 -0.34509948 -0.15358748 -0.14339605 0.28787974 -0.39940414 -0.12563726
-0.032396786 0.49353957 -0.084365234 -0.07643105 0.34587735 0.18353257 -0.35239625 0.41700742
-0.08448141 0.19543216 -0.47525743 0.09246036 -0.36006436 -0.36433932 0.06607057 0.3338469
0.29422736 -0.04781458 0.4123388 -0.3068139 -0.3092696 0.08831734 0.22956303 0.35395977
-0.17673594 -0.43565148 -0.44099894 0.11595987 -0.4229088 0.29124066 0.21903211 -0.10078605
0.33889654 0.39833966 0.34460995 0.04077575 0.42174974 -0.3187176 -0.3468151 -0.24622372
0.008435027 0.026794352 -0.22205067 -0.3710738 -0.13782625 0.37917733 -0.059859622 -0.2726818
-0.416013 -0.13701896 -0.014593311 -0.39774725 -0.35186905 -0.4115285

0.bias f4 [30]
00000000: 78e6 193e 7c25 7fbd 6ee3 b73e d092 1f3e
00000010: a7e5 e2be 5859 edbd 3809 933e b727 b53e
00000020: 7c3c 243e a2e1 d83e 6ef8 dbbe f88d 67be
00000030: 1fb5 d73b 1d88 273e 209d 473e e652 d53e
00000040: c379 2cbe 88d0 a43e ac1a 613d b20e 7f3e
00000050: cbf5 61be 7483 93be 5984 6c3e 7dc5 b03e
00000060: 6b15 3b3e 0e2f bfbc e9c6 a93e ef89 f33d
00000070: 1d23 94be 0662 663d
0.15029323 -0.062291607 0.35915703 0.15583348 -0.44315836 -0.115893066 0.2871797 0.35381863
0.16038698 0.42359644 -0.42962974 -0.2261275 0.0065828706 0.16360517 0.19493532 0.4166481
-0.16843323 0.32190347 0.054957077 0.2490795 -0.22066419 -0.28811228 0.23097362 0.34525672
0.18269889 -0.023337867 0.3315957 0.11891543 -0.2893304 0.056245826

2.weight f4 [30]
00000000: 89f5 7c3f a3e2 803f 9883 793f 6769 923f
00000010: fde1 773f dd57 803f 198d 813f 7b70 7c3f
00000020: 426c 763f 99d1 783f f12b 773f ca3b 873f
00000030: e918 873f 4377 823f 412c 773f 2111 6e3f
00000040: 357f 783f 820b 7f3f 86ad 803f ef8f 823f
00000050: 1543 7c3f efe9 843f 5433 813f 91c9 7d3f
00000060: 0000 803f b70c 7c3f 6a28 7c3f 0000 803f
00000070: e52b 7c3f 0000 803f
0.98812157 1.0069164 0.9746642 1.1438416 0.96829206 1.0026814 1.0121185 0.9860913
0.9625894 0.9719482 0.96551424 1.0565121 1.0554477 1.0192646 0.965519 0.92994887
0.970691 0.99626935 1.0052955 1.0200175 0.9853986 1.0383891 1.0093789 0.9913569
1.0 0.984569 0.98499167 1.0 0.9850448 1.0

2.bias f4 [30]
00000000: 79f7 bdbc c8fe 513d 0b00 cf3c dc33 053d
00000010: 560c c73b c395 3a3d 5df9 5f3d 0025 fdbb
00000020: 8b36 6fbc 3002 853d 2756 103d 3080 ee3c
00000030: 4540 8a3c ec01 0e3b 385e 8b3c 65e4 b3bc
00000040: bf6a 813b 0a9f 243c e54e 673d 96df 45bb
00000050: 3890 273c c2ac 4f3d 7336 953c e5d8 39bc
00000060: b1dc e4bb 29cb 4ebc 42b1 a83c c5f0 db3c
00000070: dc69 933c 7a5b ab3c
-0.023189293 0.05126837 0.025268575 0.03252016 0.0060744686 0.04555298 0.05468117 -0.007725358
-0.014600406 0.06494558 0.03523841 0.029113859 0.01687635 0.0021668626 0.0170127 -0.021959493
0.0039494927 0.0100476835 0.056471724 -0.0030193082 0.0102272555 0.050701864 0.01821444 -0.011343216
-0.0069843163 -0.012621679 0.020592336 0.026848206 0.017994814 0.020917643

2.running_mean f4 [30]
00000000: a335 a242 c00e a640 8648 9541 47db a041
00000010: 068e 8d42 788e 5841 d410 b23e 9231 cb3c
00000020: 205e 8b42 4002 6741 5c4a a342 0b37 e13e
00000030: dd98 d53f 222d 483a 515e a341 3ca8 8840
00000040: aafb 8442 e47e 8040 fd26 6d3e 34e9 de40
00000050: 8556 8d42 3661 c441 955e f641 26a6 653e
00000060: 0000 0000 a92a 8842 cebc 8042 0000 0000
00000070: 2fdb f03f 0000 0000
81.10476 5.1893005 18.660412 20.107069 70.77739 13.534782 0.34778464 0.02480391
69.68384 14.438049 81.64523 0.43987307 1.6687275 0.000763612 20.421053 4.2705364
66.49153 4.0154896 0.23159404 6.965967 70.66898 24.547466 30.796183 0.22426662
0.0 68.08332 64.36876 0.0 1.881689 0.0

2.running_var f4 [30]
00000000: 7b87 4646 a155 3042 4783 8144 7cdb 7444
00000010: 2fdf 2446 1dc7 ba43 48a7 cc40 63d7 443f
00000020: ee2a 5546 38e0 0844 eb3e 7046 e3d5 2241
00000030: 89a3 9442 480b 3f3a 79c2 2b44 3202 9441
00000040: dcb0 3946 8b19 1842 13b7 ab40 e1d0 3842
00000050: 7116 1146 2753 ee44 0b2e e843 f82c 9640
00000060: 0400 0000 80e5 cd45 397b 0b46 0400 0000
00000070: 4b4c cc42 0400 0000
12705.87 44.083622 1036.1024 979.42944 10551.796 373.55557 6.39542 0.76891154
13642.732 547.5034 15375.7295 10.177218 74.319405 0.0007287753 687.03864 18.501072
11884.215 38.024944 5.366098 46.203983 9285.61 1906.5985 464.3597 4.6929893
6e-45 6588.6875 8926.806 6e-45 102.14901 6e-45

3.weight f4 [30, 30]
00000000: fd49 c4bd 0e2d cb3c 5492 ebbd 57cd a73a
00000010: ff43 28bd 1674 343e 476e 4abb dbf5 403e
00000020: 8da7 ea3d 3d62 f1bb e950 11be 9ebb fbbd
00000030: f79f 243e ee53 96bc 0fa5 063d 8378 ff3c
00000040: f873 693d 99bf 113e 15cf 423d 3ea0 e9bd
00000050: dfe6 20bd 16e5 4f3c f3aa 673c 4318 253e
00000060: cd3e 2bbe a7ed 35bd ebc3 ba3d b919 d1bd
00000070: 9543 013d 164c 0ebe 1f7d 123d 96e7 a2bd
00000080: 11b1 513e e302 f83c 4fa7 4cbc c3d5 17be
00000090: 03ce ecbc 070c c4bd ed7c 86bd 057a 07be
000000a0: 518b 4cbc 98e4 37be 81fa 373e d637 623c
000000b0: 1044 7f3e 5688 adbd 61cd b4bc 0a0c aebb
000000c0: 1f42 c8bd ca5c 3c3d a290 113e e921 143c
000000d0: 9ab8 483e e8b8 53bd 2cdf 14be c328 a33d
000000e0: f011 5a3d a43e 1dbe 1536 2fbe 8a4f 563c
000000f0: 969f 343e 01e0 c3bd a0c3 23be b3be 2c3e
00000100: 0fbc 143d 251c f33d d5bd 153e c8b2 2bbe
00000110: 7348 6ebd 83d0 a0bd ac28 dbbd bddc 4a3e
00000120: 5670 2cbe 279c a13c c9a0 df3c 88db c7bd
00000130: db49 673d 2778 cd3d b574 eabd 9197 b8bd
00000140: e072 2bbe 22fb afbd 398f b6bd 1e26 c23d
00000150: 94b0 0fbd 78bb 21bd c4bc 16be 63dc 2abe
00000160: 28fc 44bd 90dc 373e dd7f 07be 588a 273e
00000170: dcdd 7b3d 55f1 0c3e 2120 e2bc 0d36 243b
00000180: 13de 36be 728d 5abd d7a2 8e3d 0bd5 f0bd
00000190: 4c44 14bd 13d6 48bd fbe2 103e 1ddb a13d
000001a0: 9c3b 46be 4f8e c7bd 0a15 13be 6763 f0bb
000001b0: 6a5a 8ebd c3bb 84bd 63fb 46bd 651a 34be
000001c0: 30c2 bf3d 1529 033e 8175 04be 7db2 993d
000001d0: 27a3 883d 5450 dc3d bc3e 01bd 3585 1c3e
000001e0: 76d9 2d3e 8998 48be 3ac6 ebbd f428 72be
000001f0: 5140 e8bd fbda 05be a511 0fbd a55d 2bbe
00000200: 524a af3c 8451 ffbd df68 0d3e 0c4a 4bbd
00000210: 68de 0ebe 0d66 1bbe 2858 27bd d076 bebd
00000220: 315e 753d b851 133e 18c1 14be 4ead a2bd
00000230: 99a9 28be ad68 e9bd ef08 f13d 9e15 503d
00000240: 872d 08be 1ac9 1fbe bf1c 11bd bb0b 1cbe
00000250: 547b f63c 0368 8a3d f362 3e3b 3c53 efbd
00000260: c685 3d3e d70a 503e 0fe1 2e3d 7a2b 2fbe
00000270: 1f14 263e 1bcb a63d 81ae 0cbd 6e91 333e
00000280: 2a56 21be 979b afbd 5260 313c dd57 6cbc
00000290: 86bb 0cbe 6b9a cc3c 8b70 0ebe 4537 87bb
000002a0: 8370 79bd 1676 d03d 75a9 e43d 072e 083e
000002b0: 8fa4 a9bd 2ea4 c83c 8acf 993d 6685 d33d
000002c0: f983 583d cfc9 153e f88e 633d b1b9 29be
000002d0: c9e4 333e e362 10be 3729 1d3e 67b5 e0bd
000002e0: 44a7 41be 7a47 7fbd fd9d 9abc a1c3 b23c
000002f0: 5c4f c0bd 9a33 02be cde1 f53d 9683 80be
00000300: 632f 533d 53de 8a3c 5802 58bd 2f14 38bd
00000310: b4c7 96bd 6dbe ad3d c5dd 453e 766c 653e
00000320: 5141 92bc 97dc 853b 4452 ba3d 254a 05bc
00000330: 2f21 bdbd 866b 87bc 4972 02be 17d1 cbbd
00000340: caf5 9ebd d319 1f3e 9431 bfbd bd88 b1bd
00000350: 9d95 1cbe 9d0d 29be 3ae0 cd3d 82d2 96bd
00000360: 2a64 e3bd 2970 07bd 6d6e f4bd 81da d3bd
00000370: ffb5 163e b113 07be 2761 89bd 144c 29be
00000380: 66d4 07be 7ba4 ae3c 3d77 8a3b 46b0 c73d
00000390: a3fe 23be 1832 5d3e abfd 15be 6ab0 353e
000003a0: d02a 0fbe 5e11 cdbd 981a 45bd b15f 063e
000003b0: 5fab af3d bff7 023e 3b66 b43d f965 0bbd
000003c0: 8f60 1fbe bd39 aabd 3e41 02be 4d86 7cbe
000003d0: 3a92 d93d 859c e4bd 2685 56be c622 1fbe
000003e0: da60 273e c996 50be a5bd 23be f92f 99bd
000003f0: 8c09 0e3e 554e 1dbd 18e8 0b3e 3cf1 b1bd
-0.09584425 0.024801757 -0.11502519 0.0012802285 -0.04108047 0.17622408 -0.0030888484 0.18843786
0.11457739 -0.0073664472 -0.14191021 -0.122916445 0.16076647 -0.018350568 0.032872256 0.031185394
0.056995362 0.14233245 0.04756077 -0.11407517 -0.039282676 0.012688896 0.014139879 0.16122536
-0.16723175 -0.044416096 0.091194 -0.10209984 0.031558592 -0.13896212 0.035763856 -0.07954328
0.20477702 0.030274814 -0.012491061 -0.14827637 -0.028906828 -0.095726065 -0.065667965 -0.1323014
-0.0124843875 -0.17958295 0.17966653 0.013807258 0.24928308 -0.0847327 -0.022070589 -0.0053114938
-0.097782366 0.045986928 0.1421533 0.009041288 0.1960167 -0.051690012 -0.14538258 0.07966759
0.053239763 -0.15355927 -0.17110474 0.013080487 0.17639002 -0.0956421 -0.15992594 0.16869621
0.03631216 0.118706025 0.14623196 -0.16767418 -0.05817456 -0.078522705 -0.10701117 0.19810767
-0.16839728 0.01972778 0.027298348 -0.09758669 0.05646692 0.10032683 -0.11448041 -0.09013284
-0.1674304 -0.08592822 -0.08914036 0.094799265 -0.035080507 -0.039485425 -0.14720446 -0.16685633
-0.048092037 0.17955232 -0.1323237 0.16361368 0.06149088 0.13763936 -0.02760321 0.002505663
-0.17858152 -0.05335755 0.06964653 -0.11759385 -0.036197945 -0.049032282 0.14149086 0.07903121
-0.19358677 -0.0974394 -0.14363495 -0.0073360684 -0.06950839 -0.06481125 -0.048579585 -0.17588194
0.0936321 0.1280864 -0.12935449 0.07504747 0.06671744 0.10757509 -0.03155397 0.1528519
0.16977486 -0.19589438 -0.11512418 -0.23648435 -0.113403924 -0.13071816 -0.034928937 -0.16734941
0.021397743 -0.1246672 0.13809536 -0.049631163 -0.13952029 -0.15175648 -0.040855557 -0.093000054
0.05990428 0.14386642 -0.14526784 -0.079432115 -0.16470946 -0.113969184 0.11769282 0.050801866
-0.13298617 -0.15604058 -0.035427805 -0.1523885 0.030088104 0.0675812 0.0029050678 -0.116857976
0.18508062 0.20316635 0.0426951 -0.17106429 0.16218613 0.08144208 -0.034346107 0.17535946
-0.15755525 -0.08574598 0.010826187 -0.014425245 -0.1374341 0.024975976 -0.13910119 -0.0041264617
-0.060898315 0.10178773 0.11165134 0.13298808 -0.0828334 0.02449235 0.07510288 0.10328178
0.052860234 0.14627765 0.055556267 -0.16574742 0.17567743 -0.14100222 0.15347753 -0.109721
-0.18911463 -0.062324025 -0.018874163 0.021821799 -0.093901366 -0.12714997 0.12005959 -0.25100392
0.051558863 0.016951716 -0.05273661 -0.044941124 -0.07362309 0.084835865 0.1932288 0.22404656
-0.01785341 0.0040851342 0.09097722 -0.008135353 -0.09234845 -0.016530763 -0.12738909 -0.0995199
-0.07761724 0.15537195 -0.09335628 -0.08668659 -0.15291448 -0.165091 0.100525334 -0.0736437
-0.11103089 -0.03306595 -0.119351245 -0.10344411 0.14717864 -0.13191105 -0.067079835 -0.16532928
-0.13264617 0.021318665 0.00422564 0.09750418 -0.16015105 0.2160114 -0.14647548 0.17743078
-0.13981175 -0.10013078 -0.048121065 0.13122441 0.08577608 0.1278982 0.088085614 -0.034032796
-0.15564178 -0.08311794 -0.127202 -0.24660607 0.10623594 -0.11162666 -0.2094923 -0.15540609
0.1634554 -0.2037002 -0.15990312 -0.07479853 0.1387083 -0.03840478 0.13662755 -0.0868859

3.bias f4 [30]
00000000: 6672 39be c3a4 59be a39d 10be 6aea 043e
00000010: 30a2 8c3c dc50 673d 1f35 95bc 5342 2ebe
00000020: cb5a 55bd 4de5 eebc ddf0 eb3d 21e5 be3d
00000030: b314 aabc 3755 793c 8f8f 78bd 068e a3bd
00000040: 32b1 373e 37f5 323e e72a 2d3d 756e 023e
00000050: 28e5 d03d 0200 373d 257c 06be 3294 70bd
00000060: 77b4 e4bd a0a8 653d 6858 37bd 7b3a 6ebe
00000070: bf23 02be d650 5c3d
-0.18110046 -0.21254258 -0.14122634 0.12980047 0.01716718 0.056473598 -0.018213807 -0.17017488
-0.05208854 -0.029162074 0.115205504 0.093210466 -0.020761823 0.015218071 -0.060683783 -0.07986073
0.17938688 0.17476355 0.042277243 0.12737449 0.10199958 0.04467774 -0.13133295 -0.05873508
-0.111672334 0.056069016 -0.044762045 -0.23264496 -0.12708949 0.05378803

5.weight f4 [30]
00000000: 57d1 813f ef19 7e3f 98f6 793f 2419 813f
00000010: c279 813f f712 813f eab7 7d3f b9b2 7e3f
00000020: 8f9f 843f d2aa 7a3f 69d6 7f3f 9fe1 793f
00000030: ffdd 873f fb47 7f3f 638a 7a3f 72b3 7e3f
00000040: 5c9e 873f 8ec4 7d3f 23b4 803f 258c 7b3f
00000050: 1a50 833f 411b 853f 6e6a 803f 1651 783f
00000060: d0fc 7d3f 338e 763f 9480 7c3f 1054 7b3f
00000070: 67a8 7b3f d69f 7b3f
1.014201 0.9925832 0.976419 1.0085797 1.0115283 1.0083913 0.99108756 0.9949146
1.0361193 0.979169 0.9993654 0.97609895 1.0614623 0.9971921 0.9786741 0.9949256
1.0595202 0.99128044 1.0054973 0.9826072 1.025882 1.0398942 1.003248 0.9699873
0.99213886 0.9631073 0.98633695 0.98175144 0.98303837 0.98290765

5.bias f4 [30]
00000000: b42d ae3c 3f22 60bd 1514 823d 8653 3cbc
00000010: d6a5 1fbc f31a 82bc 3958 dfbb 3f75 60bd
00000020: b4e5 dfbc 2509 a93c 9d6a 943b 7a07 4a3c
00000030: 9dca 26ba ef2b 8bbb 2313 86bd 6543 293c
00000040: 7eed f83c e426 37bb a6ed e2bc db7f aa3c
00000050: a545 493d e426 b23c 5fcb 53bc 9ad9 303c
00000060: 1a3e 1e3c 1535 083d d86f 283d 54a9 7e3c
00000070: cc0c 77bc f133 203d
0.021262027 -0.05472016 0.063514866 -0.011494523 -0.009744128 -0.015881991 -0.006815937 -0.054799315
-0.02733121 0.020634243 0.004529311 0.012330884 -0.0006362589 -0.0042471807 -0.06546619 0.0103310095
0.030386683 -0.0027946765 -0.02770121 0.02081292 0.049138684 0.02174706 -0.012926905 0.010794068
0.009658361 0.033253748 0.041122288 0.015543301 -0.015078735 0.039112035

5.running_mean f4 [30]
00000000: 9523 653d 22c1 623e 9fca 283d 4eb6 803e
00000010: db0d 873e 5e5d 1c3e 0f4d 2d3e 4352 1a3e
00000020: 1180 073e fcc1 0e3e 3845 743e aab0 a33e
00000030: 4d0d 153e bfbe 6b3e dfce 6b3e 00c8 c53d
00000040: cffc 7b3e 61b1 4f3e 4d23 843e 2487 9c3e
00000050: 7eaa 943e 13f7 833e 0330 613d f31a 0a3e
00000060: f3a1 bd3e 844d ca3e ddc8 ce3d 03dd 433e
00000070: cdbe e23d 684e 6c3e
0.055942137 0.22143987 0.04120886 0.25139087 0.26377758 0.15269992 0.16923927 0.15070443
0.13232447 0.13941187 0.2385453 0.3197072 0.14555855 0.23021983 0.23028134 0.096572876
0.24608158 0.20282508 0.25808182 0.30571854 0.29036325 0.2577444 0.05497743 0.13486843
0.3703762 0.39512265 0.100969054 0.19127278 0.110715486 0.23076785

5.running_var f4 [30]
00000000: cd19 c73d 2782 1f3e 0802 313d 4a6c e53d
00000010: 62b1 0e3d 57c7 933d cf82 923c 6176 6d3c
00000020: faca 263c 0ea2 0c3e 4baa f43c b8c1 033e
00000030: 09b7 503c 261a 233e 3c0a 293e 2329 cb3d
00000040: 6bac 623d b634 d13d 8ddb 1f3d a6cd 293d
00000050: fded 833e 1812 193d b905 0b3e 55dc 893d
00000060: f1f0 a43d a424 d23e 25f1 3f3e 9485 ae3d
00000070: 6da3 b33d 6547 493e
0.09721718 0.15576993 0.043214828 0.11202295 0.034837134 0.072157554 0.01788464 0.014493556
0.010180229 0.13733694 0.029866358 0.12866867 0.0127389515 0.15927944 0.1650781 0.099199556
0.05534021 0.10215132 0.03902774 0.041455887 0.25767508 0.03737077 0.13576402 0.06731478
0.080537684 0.4104358 0.18744333 0.08521572 0.08771405 0.19656141

6.weight f4 [30, 30]
00000000: e9b8 0d3c e252 7ebd 15bb 933d 0fd4 cabd
00000010: d695 66be 2e2d 4c3d 2265 353e 886f 82bb
00000020: a40f 3abe 2c57 f53d 3f97 7fbd 73b5 dc3d
00000030: d002 7b3c 27d7 bd3d f3d2 ecbc 35ef 1dbe
00000040: 1623 c13d b9c9 fcbd ec82 bbbd 195a a0bd
00000050: ff1b 05bd e204 59bd 28dd 663d effc 3a3b
00000060: 38a2 1bbe 604c 68bd 6e05 863d 1511 27be
00000070: 3f1e 073e 7613 343d e103 b8bd 150a 003e
00000080: 220c bb3d 9679 e63d 3966 d73d 5647 0d3e
00000090: 4ffd 02be fab6 d9bd 5388 233e 96d0 513d
000000a0: 15b4 8a3d a2c2 6ebd 37ba 0fbe 01d8 0bbe
000000b0: 206d 1d3d 826c 413d 0301 b3bd 827c 1f3e
000000c0: 4c2b de3d 3b37 c33d def9 04be 644b f1bd
000000d0: e940 5fbd 8d9b 413e 6f0f 933d a6dc 50bb
000000e0: 2129 593d 4df8 6a3e a6cd 0d3e f2cb 413e
000000f0: ce32 22be d485 48bd 82f8 b4bd 9aa9 05bd
00000100: 30a3 4abe 4799 c43d 1022 d43d 3c4d 1ebe
00000110: a616 18be f871 1d3e 7760 d13c b616 b0bb
00000120: 5c0a 1cbe b5c2 ac3d 2f7c 713d d6b7 b73d
00000130: 6a82 123d f251 783e 21f9 b43d 5e43 333e
00000140: f799 96bc f65d 3c3e e49b 7d3b 5022 ac3d
00000150: 7d1c 2abe edc8 1fbe b6c8 253c eb7c 113e
00000160: 33de 3e3e 28a1 633c 1d63 e03d d142 b8bc
00000170: 2dda 52bd 6b79 1a3c 9569 7b3c 83dd 843c
00000180: e168 433e 87ca 2e3b 08e0 cfbd 26d9 833c
00000190: d26b ec3d be10 373e 3aee 0dbd 21f6 acbd
000001a0: 0479 64bc db5a d6bd 8835 093d 95ae 033c
000001b0: 47a8 fd3d 9d43 bc3d 5f55 a0bd bc4e 00be
000001c0: a8be 303e 20ab afbd a093 223e 5b52 39be
000001d0: 4f5c 9cbd 5c83 253e 2f6d 843d 11d8 2a3d
000001e0: 057e 05be 19dc 953c 3e2e 193d caed 53bd
000001f0: f262 e3bd a488 fd3d fcb1 8abd f050 2ebd
00000200: 3466 443d 4915 27be 04a1 523d c6c5 c0bd
00000210: 521f e73d 3024 393d ac22 9b3d 96af 87bd
00000220: 7240 363e 1dd7 ebbd 1838 df3a 2850 1f3e
00000230: 26a7 4d3e fe1a a63d 286a 07be 0b94 89bd
00000240: 1763 92bd 2e5e c5bc 633b c0bd 53c6 ebbd
00000250: 5f9f 2fbe fb75 03be cf2f 173e cc68 0b3e
00000260: fd57 3b3e def0 6c3d c545 083e 110f 84bd
00000270: 1e74 213e 8832 11bd cd9b 9cbd 5d14 223e
00000280: b0b6 3c3d 6f0d e13d 1c36 c0bd f532 e83d
00000290: dd9d 18be 3f96 c0b8 fb43 893d ada6 f13d
000002a0: 5892 b0bc 392e a3bb b9b5 26be 27c9 2c3e
000002b0: c2c1 3e3d 7373 0f3e a035 bf3d 0ca5 e3ba
000002c0: b187 063e 2fcd a13d a686 33be d453 353e
000002d0: 6ae9 49bd ba52 93bd 0436 37bd d468 69bd
000002e0: 6ba5 2fbd 95b1 303d ad53 883d 3b40 063e
000002f0: 3e15 00be 4085 e93d 2629 b43d 51d5 973b
00000300: e176 5abe 3a79 343e 49e6 11bd b2cf 1cbe
00000310: d1ac e23d 9f6e dcbd bd1b d43c 9f06 913d
00000320: 2d50 303d bef0 8a3a ac5b 5dbe fa3e f2bd
00000330: 7518 723d c6de 0d3e f297 3cbd 9931 c8bc
00000340: 8da1 42be b051 933d 8992 f0bd 9f96 453d
00000350: 8815 1cbe 18cd aa3d 8684 853c ed72 013e
00000360: 9713 a93d 9721 5f3e 6c62 833d 6a7e 8cbd
00000370: a1bd dc3d c4fe 0f3e ab16 ccbd 9aae b03d
00000380: 0dfc ee3d 305c 933d ac0d 90be 69fa 213d
00000390: a0e8 4dbe 4af2 8cbd d587 13be c657 b63d
000003a0: eb86 9ebd e60d 1fbe a642 663d 5f67 903d
000003b0: 50e4 943d c1c1 363d 7fc2 a3bd 135d 96bd
000003c0: f1d7 603e afe8 75bd 36e8 08be a48b d53d
000003d0: a0a7 32be adea 973d e605 99bd 1bdc f53d
000003e0: 6860 853d bc40 37ba a208 0d3d 554c 203e
000003f0: 9002 7c3d cae8 01be c266 0b3e c1ac 0abe
0.008650043 -0.062090762 0.072134174 -0.09903728 -0.22518095 0.049847774 0.1771436 -0.0039805807
-0.18170029 0.11979517 -0.0624001 0.10776796 0.015320495 0.09269553 -0.028909182 -0.15423281
0.0943052 -0.12343163 -0.09155831 -0.07829685 -0.032497402 -0.052983172 0.056363255 0.0028532108
-0.151986 -0.056713462 0.065440044 -0.1631511 0.13195132 0.043963872 -0.08985115 0.12503846
0.091331735 0.112536594 0.10517544 0.13796744 -0.12791942 -0.10630603 0.15969972 0.051224314
0.06772629 -0.058291085 -0.14035879 -0.13656618 0.038434148 0.04722262 -0.08740427 0.1557484
0.10848102 0.09532019 -0.12985942 -0.11781958 -0.054505263 0.18906994 0.07180678 -0.0031869798
0.05301774 0.22946282 0.1384798 0.18925455 -0.15839693 -0.048955753 -0.088364616 -0.032632448
-0.19788814 0.09599548 0.103580594 -0.1545915 -0.1485239 0.15375507 0.025558693 -0.005373801
-0.15238327 0.08435575 0.05895632 0.08970611 0.035768904 0.2425001 0.0883658 0.17506167
-0.018383963 0.18395218 0.0038697654 0.08404982 -0.1661243 -0.15603991 0.010118654 0.14207809
0.1863945 0.013893403 0.10956404 -0.022492798 -0.0514776 0.009428362 0.015344997 0.016218906
0.19082977 0.0026671009 -0.101501524 0.016094755 0.115440026 0.1787748 -0.03465102 -0.08445383
-0.013944868 -0.10466548 0.033498317 0.008037229 0.12385612 0.09192584 -0.07828783 -0.12530035
0.1726023 -0.085775614 0.15876627 -0.18097822 -0.07634794 0.16163391 0.064661376 0.041709963
-0.13036354 0.018293427 0.037397616 -0.051740445 -0.11102857 0.12379578 -0.06772229 -0.042557657
0.04794903 -0.16316713 0.051423088 -0.09412722 0.11285271 0.045200527 0.075749725 -0.06625287
0.17798021 -0.11515639 0.0017030267 0.15557921 0.20083293 0.08110617 -0.13224089 -0.0671769
-0.07147806 -0.02409276 -0.09386327 -0.11512437 -0.17150639 -0.12837975 0.14764331 0.13614196
0.18295284 0.057846896 0.13307865 -0.06448186 0.15766951 -0.03544858 -0.07646904 0.1582808
0.046072662 0.109888904 -0.093853205 0.11337844 -0.1490397 -9.183259e-05 0.06702419 0.11799369
-0.021554157 -0.0049798754 -0.16280259 0.16873609 0.0465715 0.14008884 0.093364 -0.0017367913
0.131377 0.07900464 -0.17531833 0.17707759 -0.049294867 -0.07193513 -0.044729248 -0.056984738
-0.042882364 0.043138105 0.06656585 0.1311044 -0.12508103 0.114023685 0.08796911 0.0046335836
-0.21334411 0.1762437 -0.035620008 -0.15313604 0.11068118 -0.10763287 0.025892133 0.07081341
0.04304521 0.0010600311 -0.21617001 -0.11828418 0.059105355 0.13854513 -0.046043344 -0.024437713
-0.19006939 0.07193315 -0.11746699 0.048239347 -0.15242589 0.083399 0.016298544 0.12641497
0.082556896 0.21790157 0.06415257 -0.06860049 0.10778356 0.14062029 -0.09965261 0.086270526
0.116691686 0.07195318 -0.2813543 0.03954545 -0.2010827 -0.068821505 -0.14407285 0.0890346
-0.07740577 -0.15532646 0.056215905 0.070509665 0.0727011 0.044618372 -0.079960816 -0.07341971
0.21957375 -0.060036357 -0.13369831 0.10427025 -0.17446756 0.07417808 -0.07471828 0.120048724
0.06512529 -0.0006990542 0.03443206 0.15654118 0.06152588 -0.12686458 0.13613418 -0.13542463

6.bias f4 [30]
00000000: 052c 60bd ed89 a3bc 06fe 1e3e 83a6 9fbc
00000010: aa77 d13d 60e7 d33d ee1b d33d 3c32 0dbe
00000020: bde2 e5bd ff2f 1bbd 95de f13c 77b7 453e
00000030: 5400 d03c bd6f dfbd 8948 bdbd 69ce 263d
00000040: 9503 81bd 0ae4 e23d 676c 64be 64dd 04be
00000050: a164 eebd 85a7 b4bd 9250 f4bd 291d 5fbe
00000060: 88b0 11be fcac d4bd 5498 17bd 289b cabd
00000070: 9585 013e 421e 3bbd
-0.05472948 -0.01996323 0.1552659 -0.019488579 0.10227902 0.10346866 0.103080615 -0.13788694
-0.112248875 -0.03788757 0.02952508 0.19308268 0.025390781 -0.10909984 -0.092423506 0.04072419
-0.06299511 0.11078651 -0.22306977 -0.12975079 -0.11640287 -0.08821014 -0.1192943 -0.21788467
-0.14227498 -0.10384557 -0.037010506 -0.09892875 0.12648614 -0.045683153

8.weight f4 [30]
00000000: b19e 773f 0010 723f 52e0 773f 020f 763f
00000010: 80d8 753f 600d 7a3f ebea 763f 95c4 7e3f
00000020: bb1f 6f3f c21b 843f 7116 733f 6c1b 773f
00000030: f3c9 793f ee5c 703f 233a 7b3f 52d0 733f
00000040: c0f1 753f 41f0 793f f9cb 743f 7567 743f
00000050: 06dc 773f c73e 733f 9379 793f d4b0 793f
00000060: 478f 793f fae9 753f 3774 713f acac 763f
00000070: c4ad 743f 4e86 6c3f
0.9672652 0.94555664 0.9682666 0.9611665 0.9603348 0.9767666 0.96452206 0.9951871
0.9340779 1.0320971 0.9495612 0.9652622 0.97573775 0.938918 0.98135585 0.95239747
0.96072006 0.97632223 0.9562374 0.9547036 0.96820104 0.95017666 0.9745113 0.97535443
0.9748425 0.96060145 0.94317955 0.96357226 0.95577645 0.9239243

8.bias f4 [30]
00000000: 4acf a63e fd35 883e d5f5 2ebe 4f9b a2be
00000010: fcbe 46be ac2c 75bb 1b4a b63e a97c 413d
00000020: 6fc0 173f 4185 74bd dae5 61be 8632 85be
00000030: fe1f c03c 5e7e a2be 5733 4c3d 3e30 83be
00000040: 5f96 2dbd 403c ef3d 0d44 863d 185d d13e
00000050: aca5 d83c abc8 29be dcfe ffbd 61ce 7d3e
00000060: 2641 babc 833e 063e 3ee8 b3be 6c33 033e
00000070: 760c 91be 9088 e7be
0.32580024 0.2660369 -0.17085965 -0.31759116 -0.19408792 -0.003741066 0.35603413 0.047238026
0.59278005 -0.059697393 -0.22060338 -0.2601511 0.023452755 -0.31737036 0.04985365 -0.25622743
-0.042379733 0.11681414 0.065559484 0.40891337 0.026446186 -0.16580455 -0.124997824 0.24785759
-0.022736143 0.13109784 -0.35138124 0.12812585 -0.2832982 -0.45221376

8.running_mean f4 [30]
00000000: bb21 873e 88d3 473e b3bb 8d3e b0e3 c13e
00000010: 58f5 c03e f501 ae3e 2cff 6f3e faaa 203d
00000020: 3327 e13d e5d6 ad3e 3398 983e 0d75 083f
00000030: 74c1 9e3d 45a6 1b3e 0624 5b3e 44d4 f53e
00000040: 9ce4 773e 97ea a93e d708 4d3e b95f c83e
00000050: ba2d 9f3e 9d06 4e3e cbfd ca3d 86a9 c33d
00000060: 3a18 423e eb55 c03e 4374 ec3d dba1 8d3e
00000070: c532 d23e 13a6 ba3e
0.26392922 0.19514287 0.27682266 0.37869024 0.37687182 0.33985868 0.23437184 0.039225556
0.10993805 0.33953014 0.2980362 0.53303605 0.07751742 0.15200146 0.2140046 0.48013508
0.24208301 0.3318679 0.20022903 0.3913553 0.31089574 0.2011971 0.099116884 0.095538184
0.18954554 0.3756555 0.11545613 0.27662548 0.4105436 0.3645483

8.running_var f4 [30]
00000000: 9532 6e3e 2b13 0b3f a7d9 b13e e642 f53e
00000010: c3ae a23e ff18 053f 494b 0c3e f663 4b3b
00000020: d5c2 953e 041d b73e 0c29 843d 61b1 1e3e
00000030: a6f3 9e3c 0242 993d 4262 1a3e 721d 203e
00000040: dd29 4f3e a1bf b03e db97 223d d1b3 e83d
00000050: 67c7 933e 1f41 f13d 6400 6a3e 719c d53c
00000060: 273f d83d 2e54 e93e 2251 7a3e 9340 503d
00000070: f9f2 ec3e 3b03 d43e
0.23261483 0.54326123 0.34736368 0.47902602 0.31773958 0.51991266 0.13700594 0.0031034923
0.29250208 0.35764325 0.064531416 0.15497352 0.01940329 0.07483293 0.15076545 0.15636232
0.20230813 0.345212 0.039695602 0.11362422 0.2886307 0.11779999 0.22851712 0.026075574
0.1055892 0.45572037 0.24445012 0.050842833 0.46279123 0.41408715

9.weight f4 [5, 30]
00000000: e334 523e eff8 443e 4a5f d1bd 6c66 3ebe
00000010: 40ec 0ebe 9452 143d 39c4 663e 8325 39bd
00000020: eee2 973e 4ff4 a53e 9f88 15be 05eb 59bd
00000030: 9f9c 993d 41c0 5fbe a5d5 23be 4458 25bc
00000040: 4482 933c 8d0a 8abc c556 7c3c 63e0 153e
00000050: 3844 0a3e 01cb b7bd 5d68 dabd 0c33 583e
00000060: d1d3 933c 5c5d 203e 23fd 01be 6b1d 273e
00000070: 8968 a9bd 6fd7 79be 9e2a 2d3e d31d 0e3e
00000080: 49f6 b9bc c9ab 1dbe 2137 85bd 2540 a03c
00000090: 088b 943e 21f7 d1bd 5648 643e 295a 0fbe
000000a0: da4a 0b3e c1a9 4ebd 6363 d73d 3d1a 9bbc
000000b0: 307d 283e e3c1 d1bd 777b cabd 399d 493e
000000c0: 9951 823a 7a76 683e a520 41bd 0890 83bd
000000d0: 9f04 a7bb b1cd 9dbd beac 9cbd 4045 03bd
000000e0: 34bd 07be ba13 a23d 5a6a 6abe 53c5 89bd
000000f0: 2e61 843c 8cbd ce3d 3215 f4bb 8c4e 06bd
00000100: 8bbe f03d e4c4 b6bd d4cf 4f3e e755 23be
00000110: f33f a23d ea61 68be 6bca a23d 2191 c2ba
00000120: d15b d43d 65d3 c4bb 26f9 cb3d a53d e13d
00000130: f5ff 3c3d f099 6a3c dc3e 59bd 31b4 f13d
00000140: 9ca4 6fbd edcd c9bb 83a4 ecbd eda8 3dbe
00000150: 6214 85bd 3d07 40bd ff01 193d 5922 f6bd
00000160: 61aa ebbd b394 9a3c c00a 56be 3629 dbbd
00000170: 5e77 2cbe 7daf 713c 4af7 15be 3497 e5bd
00000180: a368 ab3d f76d 19be e48d 72be 7176 c83d
00000190: 5297 68bc 7941 b93d 16f3 d63d 1fe7 333e
000001a0: d003 e33b 306c 203e a337 433d 83f7 ddba
000001b0: cfc2 923d b763 c7bd a5c6 5dbd 3468 4b3e
000001c0: dc45 d73d e3f6 11be 4f3e b1bb 6dd6 3d3c
000001d0: b51d 5c3d 9e74 df3d 2cf2 673d fd27 523e
000001e0: a27e 2bbe b0b4 acbc 8196 2c3e 6a2e 563e
000001f0: dfd7 123e 17f6 c93d 23b0 51be 08a2 fb3d
00000200: bbf3 c4be e010 d53d dc9f 193e af3a 843e
00000210: 1cca 74bd 049b dfbc 0c72 7abd 105b 403e
00000220: 0f58 95bd fb03 0cbd 2f72 c53c 77e7 96be
00000230: 2038 483d 0fc0 b2bd babb 7f3d d4cc 33bc
00000240: e079 363d d808 f6bd 1144 6f3e 59e0 063c
00000250: 8f66 0c3e 0bec 663e
0.20527987 0.19235586 -0.10223253 -0.18593758 -0.1395731 0.036211565 0.2253579 -0.04520179
0.2966532 0.32412955 -0.14602898 -0.053202648 0.07500576 -0.21850683 -0.15999468 -0.010091845
0.018006451 -0.016850734 0.015401547 0.14636378 0.13502586 -0.08974267 -0.10664437 0.21113223
0.018045338 0.15660614 -0.1269422 0.16319816 -0.082718916 -0.24398588 0.16910788 0.13878565
-0.022700446 -0.15397562 -0.06504656 0.019561836 0.29012322 -0.10252214 0.22293219 -0.13999237
0.13602772 -0.05045486 0.105170034 -0.01893341 0.16454005 -0.10242059 -0.0988683 0.19688882
0.0009942531 0.22701445 -0.047150273 -0.06423956 -0.0050969864 -0.07705248 -0.076501355 -0.032048464
-0.13255769 0.07913919 -0.22892132 -0.0672709 0.01615962 0.10094747 -0.0074488157 -0.032789752
0.11755093 -0.08924273 0.20294124 -0.15950738 0.079223536 -0.22693601 0.079487644 -0.0014844277
0.10369075 -0.0060066455 0.09959631 0.10998086 0.046142537 0.014318928 -0.053038463 0.11801947
-0.058506593 -0.0061585815 -0.115548156 -0.18521471 -0.06498028 -0.046881903 0.03735542 -0.1201827
-0.115071066 0.018869733 -0.20902538 -0.1070122 -0.1684241 0.014751312 -0.14645115 -0.1121048
0.08369567 -0.14983355 -0.2368694 0.09788216 -0.014196234 0.09045691 0.10495584 0.17568634
0.0069279447 0.1566627 0.04766048 -0.0016934726 0.07166063 -0.09735816 -0.05414452 0.19863969
0.105113715 -0.14254336 -0.005409039 0.011586768 0.05373927 0.10910915 0.056627437 0.20523067
-0.16747525 -0.021082252 0.16854288 0.20916143 0.14340161 0.09861391 -0.20477347 0.122867644
-0.38467202 0.10403609 0.15002388 0.25826022 -0.05976306 -0.027295597 -0.06114392 0.18784738
-0.072921865 -0.034183484 0.024102299 -0.2947347 0.04888165 -0.087280385 0.06243489 -0.010974128
0.044549823 -0.120134056 0.23365809 0.0082322 0.13710998 0.22550981

9.bias f4 [5]
00000000: 2b7c 673f 29b1 173f c66f 113e f2f2 36bf
00000010: eb68 62bf
0.9042384 0.592547 0.14202794 -0.71464455 -0.8844134
