FBIproject/fbiapp/script/model/pretrained_생리량.pt (torch, 17662 bytes, 20 tensors)

0.weight f4 [30, 5]
0	0xbdc15d4a	-0.094416216
1	0x3e64d475	0.22346671
2	0x3ef16345	0.4714605
3	0xbecdd685	-0.40202728
4	0xbe1fab35	-0.15592654
5	0xbea625f5	-0.32450834
6	0xbed8f3e9	-0.4237359
7	0x3f0ab96c	0.5418918
8	0x3da1d68e	0.07902251
9	0xbe702f8b	-0.23455636
10	0x3e10ade6	0.14128837
11	0xbe8c2b6b	-0.27376875
12	0xbe88caca	-0.26717216
13	0x3cc9231b	0.024552872
14	0xbe397cce	-0.18114015
15	0x3ed9d652	0.42546326
16	0xbe588958	-0.21146142
17	0x3e45e085	0.19323929
18	0x3e4d7cb6	0.20067105
19	0xbe5ee805	-0.21768196
20	0x3e804f69	0.25060585
21	0xbe5db686	-0.21651658
22	0x3e3e3ca3	0.18577819
23	0xbe492cc2	-0.1964598
24	0xbe4fec43	-0.2030497
25	0x3ea706a0	0.32622242
26	0xbed80195	-0.42188707
27	0x3defcc5a	0.11708899
28	0xbe2d30f9	-0.16913213
29	0xbe0aaeba	-0.13543215
30	0xbd90e00e	-0.07073985
31	0x3eb3e80f	0.35137984
32	0x3d25d898	0.040489763
33	0x3d079d60	0.03310907
34	0xbe42a31a	-0.19007531
35	0x3edd83f2	0.4326473
36	0xbe4d68f7	-0.20059572
37	0xbcfff82d	-0.03124627
38	0xbcde48f9	-0.027134405
39	0x3ec9a10a	0.39380676
40	0xbe1c1fed	-0.15246554
41	0xbe335ad1	-0.17515112
42	0x3df17b33	0.117910765
43	0xbebd33af	-0.36953494
44	0xbedbff69	-0.429683
45	0x3eea7142	0.45789534
46	0x3fa73cdb	1.3065447
47	0x400ca999	2.1978514
48	0x3fee5f15	1.8622767
49	0x3ef6ca3e	0.48201174
50	0x3e5fe24f	0.21863674
51	0x3e5c2498	0.21498334
52	0x3ccbf3dc	0.024896555
53	0x3b4c84b9	0.0031207039
54	0xbe4613cb	-0.19343488
55	0x3e8ba2b9	0.27272585
56	0x3ec31f7a	0.38109952
57	0x3e424415	0.18971284
58	0x3e9bea7e	0.3045234
59	0x3e359762	0.17733529
60	0x3e475e3a	0.19469538
61	0xbeb81277	-0.35951588
62	0xbed28639	-0.4111803
63	0x3edbe529	0.42948273
64	0x3e8283db	0.25491223
65	0x3e204817	0.156525
66	0xbeb8110b	-0.35950503
67	0x3dd9b17c	0.106295556
68	0xbe98581c	-0.29754722
69	0x3df2d27a	0.118565515
70	0xbebc0750	-0.3672433
71	0x3edc2d1a	0.4300316
72	0xbe750a73	-0.23929767
73	0xbd84a67b	-0.06477066
74	0x3eb337ed	0.35003605
75	0x3e354a02	0.17704013
76	0xbea5f82c	-0.32415903
77	0xbdad0256	-0.08447711
78	0xbed451ec	-0.4146875
79	0x3ec6016f	0.3867297
80	0x3e88970f	0.2667775
81	0x3e6031cc	0.21893996
82	0xbe82086b	-0.25397047
83	0xbef51c76	-0.47873276
84	0x3d5da962	0.054116614
85	0xbe959591	-0.29215673
86	0x3e71b90f	0.2360575
87	0xbddae082	-0.10687353
88	0xbecd7df7	-0.40135166
89	0x3ec882f3	0.39162406
90	0xbec3cb19	-0.3824089
91	0xbe332fff	-0.17498778
92	0xbe153666	-0.14571533
93	0xbed52036	-0.41626137
94	0xbdc8cffc	-0.09805295
95	0xbd48b689	-0.049002204
96	0x3f03616a	0.5132052
97	0xbe3b7059	-0.18304576
98	0x3ea61fdc	0.32446182
99	0x3cbf2b43	0.023336058
100	0x3e0a5ad4	0.1351121
101	0xbed4e680	-0.41582108
102	0xbec2ed11	-0.38071492
103	0x3d1fe94f	0.03904086
104	0x3d82c97b	0.063860856
105	0x3eaa75b6	0.3329293
106	0x3ee7a207	0.45240805
107	0x3ec30881	0.38092425
108	0xbd7ad88e	-0.06124168
109	0xbea6a85f	-0.32550332
110	0xbe5fad6c	-0.21843499
111	0xbc1e0f37	-0.009647182
112	0xbece1b86	-0.40255374
113	0xbd6a2e36	-0.057172976
114	0xbda585a1	-0.08082128
115	0x3e611cf2	0.21983698
116	0x3d319288	0.043352634
117	0xbe7fe207	-0.24988566
118	0xbe1745c2	-0.14772704
119	0xbe5acdde	-0.21367595
120	0xbd9ec62c	-0.07752642
121	0x3dde0f89	0.10842807
122	0xbec65e39	-0.3874376
123	0x3c8fb3d6	0.017541807
124	0x3e60d8e3	0.21957736
125	0x3d2eecf0	0.04270643
126	0x3e08dfda	0.13366643
127	0x3f04afa4	0.51830506
128	0x3e8cbcd0	0.27487803
129	0x3d0ff965	0.03514995
130	0xbeb066e2	-0.34453493
131	0xbe72e8b5	-0.23721583
132	0xbda1878f	-0.07887184
133	0x3e8b0aef	0.2715678
134	0x3c22100e	0.009891523
135	0x3ee4fcd0	0.4472413
136	0x3d83fbaa	0.064444855
137	0xbc102afc	-0.008799311
138	0x3e9b9996	0.30390614
139	0xbea4ce88	-0.3218882
140	0x3d131151	0.035905186
141	0x3e20824e	0.15674707
142	0x3ee784db	0.45218548
143	0xbe18f565	-0.1493736
144	0xbe3f4c47	-0.18681441
145	0x3eb2e5d5	0.34940973
146	0xbd123145	-0.03569152
147	0x3d5a3a3a	0.053278185
148	0xbe227ab8	-0.15867126
149	0x3edfe7d5	0.4373156

0.bias f4 [30]
0	0x3e1151ea	0.14191404
1	0x3e479213	0.19489317
2	0x3ec03bb0	0.37545538
3	0x3e5134df	0.20430325
4	0xbcdbb885	-0.026821384
5	0xbebea6fd	-0.37236777
6	0x3ec6df37	0.38842174
7	0x3d8d414c	0.0689722
8	0x3edc9360	0.43081188
9	0xbe1c5be9	-0.15269436
10	0xbea71bba	-0.3263834
11	0xbc8d59f4	-0.017254807
12	0x3d9c1762	0.076216474
13	0xbe741ad8	-0.23838365
14	0xbe09242c	-0.13392705
15	0x3ea81fc6	0.3283674
16	0x3e860070	0.2617221
17	0x3e95636f	0.29177424
18	0x3e23ca3b	0.15995114
19	0xbec03272	-0.37538487
20	0xbdd24f7f	-0.10269069
21	0x3e60eb4b	0.21964757
22	0xbe25b492	-0.16182163
23	0x3d4c3db6	0.04986354
24	0x3ecf8cd7	0.4053714
25	0xbe99f0f2	-0.3006664
26	0xbd9cd0f7	-0.076570444
27	0xbe81f521	-0.2538233
28	0x3df691a2	0.12039496
29	0xbdc4fd19	-0.09618587

2.weight f4 [30]
0	0x3f8e28be	1.1106184
1	0x3f7e35ac	0.99300647
2	0x3f838607	1.0275277
3	0x3f7e8089	0.9941488
4	0x3f789920	0.9710865
5	0x3f7fad3f	0.9987373
6	0x3f790476	0.9727243
7	0x3f7e12a5	0.992472
8	0x3f800000	1.0
9	0x3f801af3	1.0008224
10	0x3f7d5310	0.9895487
11	0x3f805a3f	1.0027541
12	0x3f7fdc40	0.9994545
13	0x3f808189	1.0039531
14	0x3f7a4800	0.97766113
15	0x3f7ce28e	0.98783195
16	0x3f809392	1.0045035
17	0x3f7d14cf	0.98859876
18	0x3f800000	1.0
19	0x3f856c0c	1.0423598
20	0x3f7f168d	0.99643785
21	0x3f7b59f5	0.9818414
22	0x3f800000	1.0
23	0x3f7c2172	0.98488533
24	0x3f772d74	0.9655373
25	0x3f82ff71	1.0234205
26	0x3f7c4c68	0.98554087
27	0x3f7ca955	0.9869588
28	0x3f82bff7	1.0214833
29	0x3f7bcc4b	0.983586

2.bias f4 [30]
0	0x3c98e8c7	0.018665684
1	0x3c1c9244	0.009556357
2	0x3a963075	0.0011458533
3	0x3b9280f7	0.00447094
4	0x3d2fc3b0	0.04291123
5	0x3cda129e	0.026620205
6	0xbba388d9	-0.0049906787
7	0x3aea3536	0.0017868641
8	0xbbb0715c	-0.0053846072
9	0xb909addf	-0.0001313011
10	0xbc8d8866	-0.017276954
11	0xbc4da6e2	-0.012551995
12	0x3cd791f8	0.02631472
13	0x3cb08cbb	0.02155148
14	0xbc982bfa	-0.018575657
15	0x3c4dbf54	0.012557823
16	0x3c29a348	0.010353871
17	0x3d2ddc01	0.04244614
18	0x3c53fbc0	0.01293844
19	0x3c982548	0.018572465
20	0x3c0a2f98	0.008434199
21	0x3ca114eb	0.019663295
22	0xbcda0326	-0.02661283
23	0xba625c98	-0.00086350134
24	0xbad84531	-0.0016500113
25	0x3d12db28	0.035853535
26	0x3c94eca7	0.01817925
27	0x3d1cbef3	0.03826804
28	0x3d7ca09b	0.061676603
29	0x3cb426f9	0.02199124

2.running_mean f4 [30]
0	0x40bfebb4	5.9975224
1	0x3ffccb29	1.97495
2	0x419d56cd	19.667383
3	0x42a82110	84.064575
4	0x42224989	40.57181
5	0x424be08c	50.969284
6	0x4121ff50	10.124832
7	0x4292543b	73.16451
8	0x00000000	0.0
9	0x43836625	262.798
10	0x424088c3	48.133556
11	0x42a07b17	80.24041
12	0x42011104	32.266617
13	0x41a7272a	20.894123
14	0x400e614d	2.2246888
15	0x41b39bc2	22.451054
16	0x422a343f	42.55102
17	0x3f52f5ad	0.8240612
18	0x00000000	0.0
19	0x41912a02	18.145512
20	0x41830a2c	16.379967
21	0x42ad119f	86.53442
22	0x00000000	0.0
23	0x420b2b24	34.79213
24	0x3ea6650e	0.32498974
25	0x420bd406	34.957054
26	0x3e4423fd	0.19154353
27	0x42bbf39f	93.97582
28	0x41aa9238	21.321396
29	0x426f95ec	59.896408

2.running_var f4 [30]
0	0x42cfc6ef	103.88854
1	0x40ccad3d	6.3961473
2	0x448dae8d	1133.4547
3	0x465afd3e	14015.311
4	0x458c17b6	4482.964
5	0x45e0289f	7173.0776
6	0x432286db	162.52678
7	0x465d0682	14145.627
8	0x00000004	6e-45
9	0x46bc993b	24140.615
10	0x456e7ca0	3815.789
11	0x45c2d8b0	6235.086
12	0x4534f2da	2895.1782
13	0x44a475ec	1315.685
14	0x431d80f5	157.50374
15	0x44bd5f85	1514.985
16	0x4596e869	4829.0513
17	0x41d17e3c	26.186638
18	0x00000004	6e-45
19	0x43df4ebc	446.6151
20	0x44513fd6	836.99744
21	0x460ce22d	9016.544
22	0x00000004	6e-45
23	0x454f7c78	3319.7793
24	0x40825690	4.0730667
25	0x43511485	209.08015
26	0x4086e64f	4.215614
27	0x4676dbdb	15798.964
28	0x4344c15a	196.75528
29	0x4611f95a	9342.338

3.weight f4 [30, 30]
0	0x3c6a75a8	0.014310278
1	0x3d8141c8	0.06311375
2	0xbd845388	-0.06461245
3	0xbd696189	-0.056977782
4	0xbd3052e6	-0.043047808
5	0x3d4b1a04	0.049585357
6	0x3d5036cf	0.05083352
7	0xbe2d457f	-0.16921042
8	0xbe114741	-0.14187337
9	0x3d431331	0.047625724
10	0x3c95ec02	0.018301014
11	0xbdad07e1	-0.084487684
12	0xbe456bde	-0.1927943
13	0xbe3ca2ab	-0.18421428
14	0xbe290861	-0.16507103
15	0x3e0c07f7	0.13674913
16	0x3cb132d0	0.021630675
17	0xbd0d7598	-0.034535974
18	0x3df91c03	0.12163546
19	0x3dd3bc07	0.10338598
20	0x3e2a86ff	0.1665306
21	0xbd57aa20	-0.05265248
22	0xbbb2bb29	-0.00545444
23	0xbddf5b6f	-0.109061114
24	0xbe3699a0	-0.17832041
25	0xbe190bc2	-0.14945891
26	0x3d9785c4	0.07398561
27	0xbd9c36c7	-0.076276354
28	0xbe0656a4	-0.13118988
29	0x3da1cdc0	0.07900572
30	0xbe78476e	-0.24245998
31	0xbd957b4b	-0.07298907
32	0xbe102c6a	-0.14079443
33	0x3d72a4ca	0.059239186
34	0x3d49cc4b	0.049267095
35	0x3e2569a5	0.16153581
36	0xbd79c42d	-0.060978103
37	0xbdb3f561	-0.08787037
38	0x3d5a284e	0.053261094
39	0x3e34d3d0	0.17658925
40	0x3e17542d	0.14778204
41	0x3e04bbfd	0.12962337
42	0x3d7c10dc	0.061539516
43	0xbcdf0c6a	-0.0272276
44	0x3dc0ffbf	0.0942378
45	0xbd1f0063	-0.03881873
46	0xbe0cdbe8	-0.13755763
47	0x3b0abc5a	0.0021169395
48	0xbe0c157d	-0.13680072
49	0x3dabf456	0.08396213
50	0x3ddb3d23	0.1070502
51	0x3d2388e2	0.039925463
52	0x3d4cc0ea	0.049988665
53	0xbd8fc92b	-0.070207916
54	0xbdbc7238	-0.09201473
55	0x3dea5f97	0.114440136
56	0x3caf525e	0.02140158
57	0xbccf0a57	-0.025273485
58	0xbca10e68	-0.01966019
59	0xbe02d4ed	-0.12776537
60	0x3ca2fe59	0.019896673
61	0x3d35b3a2	0.044360764
62	0xbe3bf4c2	-0.18355086
63	0xbe16f6b5	-0.14742549
64	0x3d72b525	0.059254784
65	0x3d64c61f	0.055853005
66	0x3d0b2db2	0.033979125
67	0x3d93263c	0.07185027
68	0x3e2534a4	0.16133362
69	0x3d3efb2d	0.04662626
70	0xbd48cb48	-0.04902199
71	0xbbbd2aea	-0.005772938
72	0xbd081a32	-0.033228107
73	0xbe67bbf1	-0.22630288
74	0xbda1a83b	-0.078934155
75	0x3e1025e7	0.14076959
76	0xbe23bbb4	-0.15989572
77	0x3c0a8075	0.008453478
78	0xbbc69fda	-0.0060615363
79	0xbe670f86	-0.22564515
80	0x3d03cf8e	0.03218036
81	0xbd1db8db	-0.03850637
82	0xbd9149c4	-0.07094148
83	0x3d1a1941	0.03762174
84	0xbcba25df	-0.022723136
85	0xbdea5592	-0.114421025
86	0x390e8396	0.00013591195
87	0x3d9ea832	0.077469245
88	0x3c92e02d	0.017929161
89	0xbe433268	-0.19062197
90	0xbdcddca8	-0.100518525
91	0x3d04ca79	0.032419655
92	0x3e228600	0.1587143
93	0x3e0cfaad	0.137675
94	0x3e10e323	0.14149146
95	0x3cafb1c3	0.021447068
96	0x3e0f913a	0.14020243
97	0xbcfd8b61	-0.03095025
98	0xbcc26ba4	-0.023732968
99	0x3cf040ba	0.029327739
100	0xbbb7605b	-0.0055962033
101	0x3d0ab6e2	0.033865817
102	0xbdd1703d	-0.10226486
103	0x3d966302	0.07343103
104	0xbe200c4c	-0.15629691
105	0x3ddc5535	0.107584395
106	0xbe47021b	-0.19434397
107	0x3e2ac42b	0.16676395
108	0xbd1d7464	-0.038441077
109	0xbdcfa5f3	-0.10139074
110	0x3d8bf880	0.06834507
111	0x3da65fb7	0.08123725
112	0x3d44c12c	0.048035786
113	0xbde9e1cd	-0.11420021
114	0xbdc6b321	-0.09702135
115	0xbda1a924	-0.07893589
116	0xbdc7f72a	-0.0976394
117	0xbe2681ca	-0.16260448
118	0x3c83f16e	0.016106334
119	0x3dedf691	0.116192944
120	0xbe7bf3f3	-0.24604778
121	0xbd2c7602	-0.04210473
122	0x3e1d5f54	0.15368396
123	0x3da8e198	0.082461536
124	0x3d74e485	0.059788246
125	0xbd93345e	-0.071877226
126	0xbd2025c9	-0.039098535
127	0xbd3a0a4f	-0.045419987
128	0x3d9bed87	0.07613664
129	0xbe1a1b28	-0.15049422
130	0x3cd7063c	0.02624809
131	0xbda2d049	-0.079498835
132	0x3da16de8	0.07882291
133	0x3d606f59	0.05479369
134	0xbe18dc84	-0.1492787
135	0x3ddf9dbc	0.10918757
136	0x3e121a0f	0.14267753
137	0xbe215564	-0.1575523
138	0x3e34d9d6	0.17661223
139	0xbe2c40e8	-0.16821635
140	0x3d83f1f8	0.06442636
141	0xbdc02d38	-0.09383625
142	0x3deeed23	0.11666324
143	0xbd2f4cdb	-0.042797904
144	0xbe183d95	-0.14867242
145	0xbdb1f8ed	-0.08690057
146	0x3d44055c	0.047856674
147	0x3db02d32	0.0860237
148	0xbe63c429	-0.22242798
149	0xbdb3781a	-0.08763142
150	0xbd9b0f13	-0.075712346
151	0xbe4b193b	-0.19833843
152	0xbc8fcb41	-0.017552974
153	0x3e2a484c	0.16629142
154	0x3be4cb6b	0.006982257
155	0xbe09c3d2	-0.13453606
156	0xbd2b8bd9	-0.041881416
157	0xbe37deea	-0.17956129
158	0xbdbb7ce8	-0.09154683
159	0xbd2a3d5f	-0.041562434
160	0x3e157778	0.14596355
161	0xbd42976c	-0.04750769
162	0x3d944568	0.07239801
163	0x3db8f9f2	0.09032048
164	0x3df9d579	0.1219892
165	0x3c32e4bd	0.010918793
166	0xbd93829f	-0.07202648
167	0x3d1ab68f	0.037771758
168	0x3dce3a9d	0.10069773
169	0x3e353e0b	0.17699449
170	0xbe2357c0	-0.15951443
171	0xbdf61af1	-0.120168574
172	0x3e2c28e8	0.1681248
173	0xbd1f83b8	-0.038943976
174	0xbd11fe15	-0.035642702
175	0xbd15f1db	-0.036607604
176	0xbe06f258	-0.13178384
177	0xbdc375c8	-0.09543949
178	0xbdd7d03d	-0.10537765
179	0xbc4596bd	-0.012059865
180	0xbe1f827f	-0.15577124
181	0x3dce0ba2	0.100608125
182	0x3df1d177	0.118075304
183	0xbdd92080	-0.10601902
184	0x3e179dfb	0.14806359
185	0x3e24f019	0.16107215
186	0x3d6d094d	0.057870198
187	0xbb87bf6b	-0.004142692
188	0xbc82fe94	-0.015990533
189	0xbc6a0346	-0.014283007
190	0xbbbfd738	-0.0058545135
191	0xbe0727f0	-0.13198829
192	0x3e28dcca	0.16490474
193	0x3e0cc695	0.13747628
194	0x3d7264b3	0.059178066
195	0xbe164887	-0.14676104
196	0xbd981636	-0.074261114
197	0xbcb08ab7	-0.02155052
198	0x3e3648b2	0.17801169
199	0xbe6e696c	-0.23282403
200	0x3d6c3ec9	0.057677064
201	0xbe2e1724	-0.17001015
202	0xbdf3454d	-0.118784525
203	0xbdffc753	-0.1248919
204	0xbd34583a	-0.044029452
205	0x3e3bcdd2	0.18340233
206	0x3e1126c6	0.14174947
207	0x3ddfbdb3	0.10924854
208	0x3e119e0a	0.14220443
209	0xbdc14d0e	-0.09438525
210	0xbca3bd29	-0.01998766
211	0x3dacff3a	0.08447118
212	0xbcfff967	-0.031246854
213	0x3d97df0f	0.07415592
214	0xbc944429	-0.018098908
215	0x3db80344	0.08984998
216	0xbc8f7ab4	-0.017514564
217	0x3db53b9b	0.088492595
218	0xbcce683c	-0.025196187
219	0xbdac253e	-0.08405541
220	0xbd9fdf41	-0.07806254
221	0x3cdfa50f	0.027300386
222	0xbe261d18	-0.16222036
223	0x3c459af7	0.012060872
224	0xbe3d851b	-0.18507807
225	0x3e21a2b7	0.15784727
226	0x3ddf6f47	0.10909896
227	0x3de628f4	0.1123828
228	0x3d80caf5	0.06288711
229	0xbd811ab1	-0.06303919
230	0xbc3296bb	-0.010900195
231	0xbdaf54d8	-0.085611045
232	0xbe226a83	-0.15860943
233	0xbcc725a6	-0.024309944
234	0xbe2bd499	-0.16780318
235	0x3d58c358	0.05292067
236	0xbe2d8a8c	-0.16947383
237	0x3e2ca978	0.16861522
238	0x3d9b0b02	0.07570459
239	0x3da77fd8	0.08178681
240	0xbd5bf59a	-0.05370102
241	0xbda8bf1a	-0.08239575
242	0xbda8480d	-0.082168676
243	0xbdd59aef	-0.10429942
244	0x3d307ede	0.04308974
245	0x3c88ae5b	0.016684702
246	0x3c93e13e	0.01805174
247	0x3e1edc82	0.15513805
248	0x3da3f7f7	0.0800628
249	0x3cc4c228	0.024018362
250	0x3d01e5ef	0.031713422
251	0xbe28ca41	-0.16483404
252	0xbe0804c6	-0.13283071
253	0x3dd835bb	0.10557123
254	0xbdda607c	-0.10662934
255	0x3dd6cdfd	0.10488508

3.bias f4 [30]
0	0x3dac084c	0.0840002
1	0x3e094509	0.13405241
2	0xbcc6efcd	-0.024284268
3	0xbe18a2bb	-0.14905827
4	0x3e07f359	0.13276424
5	0xbbbe7f75	-0.005813534
6	0xbdbd96ea	-0.092573
7	0xbe0b6039	-0.13610925
8	0x3c8690bd	0.016426438
9	0xbe3833f2	-0.17988566
10	0x3c92a1df	0.017899452
11	0x3de697e0	0.112594366
12	0x3ccf77ea	0.025325734
13	0x3df22d87	0.1182509
14	0xbdd96092	-0.106141225
15	0xbc3ec6be	-0.0116440635
16	0xbe4fb5e7	-0.20284234
17	0x3d9e0042	0.07714893
18	0x3def2187	0.11676317
19	0x3cec4f72	0.028846476
20	0x3d1d302d	0.038376022
21	0xbe2d6b78	-0.16935527
22	0xbd6b7603	-0.05748559
23	0xbd504420	-0.05084622
24	0xbde02967	-0.10945397
25	0x3d9da2b7	0.07697051
26	0x3e1ebebc	0.15502447
27	0x3e1b4692	0.15163639
28	0x3e20a748	0.15688813
29	0xbe4329f4	-0.19058973

5.weight f4 [30]
0	0x3f7c95b5	0.98665935
1	0x3f809f5d	1.0048634
2	0x3f7a82f0	0.97856045
3	0x3f7a5d98	0.9779906
4	0x3f827373	1.0191482
5	0x3f79b78f	0.97545713
6	0x3f775b1f	0.96623415
7	0x3f839f7e	1.0283048
8	0x3f7f17c4	0.9964564
9	0x3f7f6a65	0.9977172
10	0x3f75cded	0.9601734
11	0x3f7ecb90	0.9952936
12	0x3f80e354	1.0069375
13	0x3f7f96df	0.99839586
14	0x3f7f73e3	0.99786204
15	0x3f8178ab	1.011495
16	0x3f7c8dfc	0.9865415
17	0x3f7c9bbe	0.98675144
18	0x3f81e6bf	1.0148543
19	0x3f7fa70c	0.9986427
20	0x3f8029a6	1.001271
21	0x3f81bfba	1.0136635
22	0x3f85178d	1.0397812
23	0x3f81f5dd	1.0153157
24	0x3f8483c3	1.035271
25	0x3f8101d0	1.0078678
26	0x3f7d276c	0.9888828
27	0x3f7e89c9	0.99428993
28	0x3f801d37	1.0008916
29	0x3f803fdb	1.0019487

5.bias f4 [30]
0	0xbcf50fc0	-0.029914737
1	0x3ceadb06	0.028668892
2	0x3c40d32a	0.011769095
3	0xbc0b8e26	-0.008517778
4	0xbc0058cd	-0.007833672
5	0xbc325c2d	-0.010886234
6	0x3ce4056b	0.027834615
7	0x3c0b2280	0.008492112
8	0xba0bc5c6	-0.00053319
9	0xbba94dfb	-0.0051667667
10	0x3c9a6168	0.018845275
11	0x3b96c7be	0.004601448
12	0xbae9befd	-0.0017833408
13	0x3b35d08e	0.0027742716
14	0x3c614c11	0.013751046
15	0xbd157cfa	-0.03649614
16	0xbc8419ed	-0.016125644
17	0x3c8a3ff1	0.016876193
18	0x3b972bbc	0.004613368
19	0x3cffe1fb	0.031235686
20	0x3c9efcd9	0.019407677
21	0xbc9af32c	-0.018914782
22	0x3cebfe0a	0.028807659
23	0xbc681db6	-0.01416724
24	0x3c25ad5e	0.010112135
25	0x3b0853e1	0.002080195
26	0xbbf00b13	-0.007325539
27	0x3bc0d7ac	0.005885085
28	0x3c55770d	0.013028872
29	0x3c35d4db	0.011098112

5.running_mean f4 [30]
0	0x3edb3529	0.42813995
1	0x3e795a8d	0.24350949
2	0x3e7f7af3	0.24949245
3	0x3ddc4824	0.10755947
4	0x3eacfdef	0.33787486
5	0x3e4ce850	0.20010495
6	0x3e14d2f1	0.14533593
7	0x3e2fc9a7	0.17166768
8	0x3e506051	0.20349242
9	0x3e82f322	0.2557612
10	0x3e8c8e03	0.27452096
11	0x3e57dd4d	0.21080513
12	0x3e261a76	0.16221032
13	0x3ebb6a00	0.3660431
14	0x3ea15339	0.31508806
15	0x3e4a1f24	0.19738442
16	0x3ec2fc1f	0.38082978
17	0x3e9f92a1	0.31166556
18	0x3e93fa19	0.28901747
19	0x3e38d26b	0.18049018
20	0x3e15ad26	0.14616832
21	0x3e30560f	0.17220329
22	0x3e12f425	0.14350946
23	0x3e938af1	0.2881694
24	0x3e018e3c	0.12651914
25	0x3ea438c3	0.32074556
26	0x3e92873d	0.28618804
27	0x3e40bb8c	0.18821543
28	0x3eac0ee9	0.33605126
29	0x3ce320c6	0.027725589

5.running_var f4 [30]
0	0x3dc2ae33	0.09505882
1	0x3e2dfd18	0.16991079
2	0x3d047393	0.032336783
3	0x3d289f8a	0.041167773
4	0x3d975ec3	0.07391121
5	0x3d2c0623	0.04199804
6	0x3d9a587c	0.07536408
7	0x3db9590a	0.09050186
8	0x3cb1406b	0.021637162
9	0x3e46a445	0.19398601
10	0x3e87d514	0.26529753
11	0x3da847cd	0.0821682
12	0x3c73a6bb	0.014871295
13	0x3d85d45b	0.06534644
14	0x3e8bf22b	0.27333197
15	0x3cc73f9d	0.024322325
16	0x3eecb7f0	0.46234083
17	0x3e8b4c1d	0.27206507
18	0x3e60ff9a	0.21972504
19	0x3d9e97ff	0.07743835
20	0x3e4a6496	0.19764933
21	0x3c88ff31	0.016723247
22	0x3d989550	0.07450354
23	0x3d4b3571	0.049611513
24	0x3d59b82f	0.053154167
25	0x3e918744	0.28423512
26	0x3e689dfe	0.22716519
27	0x3d9a8385	0.075446166
28	0x3ec1d503	0.37857828
29	0x3cf90f9d	0.030402953

6.weight f4 [30, 30]
0	0x3e2b6724	0.16738564
1	0xbbfd462d	-0.007729313
2	0xbdf48a2b	-0.11940416
3	0x3d3b0f5f	0.045668956
4	0x3ddf05c8	0.108897746
5	0xbe045a20	-0.12925005
6	0xbe19aa65	-0.15006407
7	0x3d24787e	0.040153973
8	0x3dabceda	0.08389063
9	0x3d885340	0.06656504
10	0x3d376fd1	0.04478437
11	0x3d9e1abc	0.07719943
12	0x3db3764d	0.087627985
13	0xbdaaa725	-0.083326615
14	0x3d18f80d	0.037345935
15	0xbe183930	-0.14865565
16	0x3d95378b	0.072859846
17	0x3e422a55	0.18961461
18	0x3d09b8de	0.03362357
19	0xbc32fb65	-0.010924195
20	0x3d2aac4c	0.04166822
21	0xbdcf1e34	-0.10113183
22	0xbd3542cc	-0.044253156
23	0x3e15b3a3	0.14619307
24	0x3e12b825	0.14328058
25	0x3e02f505	0.1278878
26	0xbda5c0f2	-0.08093442
27	0xbe5a2d7a	-0.2130641
28	0x3e2d6802	0.16934207
29	0xbd798ce3	-0.060925376
30	0x3e15f206	0.14643106
31	0x3dbd47f1	0.09242237
32	0xbe093fae	-0.13403198
33	0xbd8e4394	-0.06946483
34	0xbd78649c	-0.060642824
35	0xbdf30e12	-0.11867918
36	0xbd999bb3	-0.075004004
37	0xbe1109ba	-0.14163867
38	0xbd5969d4	-0.05307944
39	0xbda5b568	-0.08091241
40	0xbbf47259	-0.0074599204
41	0x3bc25de2	0.005931602
42	0xbc9a5069	-0.01883717
43	0xbd9f91a7	-0.07791453
44	0x3dc0b18b	0.09408864
45	0xbd0328e3	-0.032021414
46	0x3e2726ac	0.16323346
47	0xbbbb4f82	-0.005716265
48	0x3d30d988	0.043176204
49	0x3d7748ff	0.06037235
50	0x3e01d5dd	0.12679239
51	0xbdabcfa6	-0.08389215
52	0xbd13a52a	-0.036046185
53	0x3c9a6f94	0.018852033
54	0x3da7b3d3	0.081885956
55	0xbdc8151a	-0.0976965
56	0x3d94fbd4	0.07274595
57	0xbd954b85	-0.07289795
58	0x3de81563	0.11332204
59	0x3d85cd83	0.06533339
60	0x3ca4c06b	0.020111283
61	0xbc637c69	-0.013884642
62	0xbbfa5eca	-0.0076406943
63	0x3c1b1a74	0.009466756
64	0xbddc2fa6	-0.10751276
65	0xbc95f19a	-0.018303681
66	0x3d925bc3	0.071464084
67	0x3d869c89	0.065728255
68	0x3dfdf1ae	0.12399612
69	0xbe405cdf	-0.18785428
70	0xbde80b68	-0.113303006
71	0x3df91a21	0.12163187
72	0xbdc5d1e9	-0.09659178
73	0xbd4360ba	-0.047699668
74	0xbc297a2e	-0.010344071
75	0xbe02e9ba	-0.12784472
76	0xbd844299	-0.06458015
77	0x3dcd4aed	0.100240566
78	0xbd92a92b	-0.071611725
79	0xbe18a119	-0.14905204
80	0x3cd4f696	0.025996488
81	0x3c8daa00	0.017292976
82	0x3e300496	0.1718925
83	0x3c61c0b8	0.013778858
84	0x3d6e9ade	0.05825316
85	0x3e162b6f	0.14665006
86	0xbde30ab8	-0.11086029
87	0xbdda50a0	-0.10659909
88	0xbd1f8558	-0.038945526
89	0x3d7028f8	0.05863282
90	0x3dc13512	0.094339505
91	0x3df4b426	0.11948423
92	0xbe0080f2	-0.12549189
93	0xbde1171d	-0.10990737
94	0xbd7ffa82	-0.062494762
95	0xbdfabd92	-0.12243189
96	0x3c83220c	0.016007446
97	0x3e39a9ae	0.18131134
98	0xbe1624e6	-0.14662513
99	0xbb606275	-0.0034238372
100	0xbd04748b	-0.032337707
101	0xba15b408	-0.00057107257
102	0x3c1d70bc	0.0096093975
103	0xbdae09cf	-0.084979646
104	0xbdca103b	-0.09866377
105	0x3db1a2be	0.08673619
106	0x3e2ef0b7	0.17084013
107	0xbded8155	-0.11596934
108	0x3e2e4079	0.17016782
109	0x3d7ff0a2	0.062485345
110	0x3db2dbc2	0.08733322
111	0x3cd3b248	0.025841847
112	0xbe75ded9	-0.24010791
113	0xbda4bfe7	-0.08044415
114	0x3e358879	0.17727841
115	0x3d56cbb4	0.05244036
116	0xbdd939fd	-0.106067635
117	0x3c9cfa5a	0.019162346
118	0xbdbd7894	-0.09251514
119	0x3dfe5cb5	0.12420026
120	0xbd9e608d	-0.07733259
121	0x3d94f91a	0.07274075
122	0xbd506eaa	-0.050886787
123	0xbd465198	-0.048417658
124	0x3dd4d860	0.10392833
125	0x3e1c156a	0.15242544
126	0xbd0451c7	-0.03230455
127	0xbd51776a	-0.051139273
128	0xbe3d1ea6	-0.18468723
129	0xbdf143ac	-0.117804855
130	0x3e2266d2	0.15859535
131	0xbde1daf3	-0.110280894
132	0x3da6b87c	0.08140656
133	0x3db92e21	0.090420015
134	0x3dbb2ae6	0.091390416
135	0x3dd60274	0.10449687
136	0xbced4eef	-0.028968303
137	0x3e145b6d	0.14488001
138	0xbdce6a60	-0.10078883
139	0x3da164be	0.07880543
140	0x3e116f4c	0.14202613
141	0xbe511cce	-0.20421144
142	0x3e307ac1	0.17234327
143	0x3d7265b6	0.05917903
144	0xbc9053e5	-0.017618129
145	0xbd0ac1e2	-0.033876307
146	0x3ddf49a0	0.10902715
147	0xbd808b5e	-0.06276582
148	0xbe39c3cd	-0.18141098
149	0x3def5e6e	0.11687933
150	0xbe389b25	-0.18027933
151	0x3e5ab04f	0.21356319
152	0xbc8b4beb	-0.017003974
153	0x3e09230e	0.13392279
154	0xbe0c9679	-0.13729276
155	0xbdea4147	-0.11438232
156	0x39137c20	0.00014065253
157	0xbcea3a53	-0.028592264
158	0xbd3c1b6d	-0.045924593
159	0xbd4b9861	-0.049705867
160	0xbe2efe26	-0.17089137
161	0xbd9ec27a	-0.07751937
162	0x3d4e3dcb	0.0503519
163	0xbe0d74ab	-0.13814037
164	0xbdc1bcb3	-0.0945982
165	0xbdcc207f	-0.09967136
166	0xbe203438	-0.1564492
167	0x3d79e549	0.06100968
168	0x3e23b83d	0.1598825
169	0xbd6bff07	-0.05761626
170	0xbd8893dd	-0.06668828
171	0xbdbcdfe1	-0.09222389
172	0xbdefe404	-0.117134124
173	0xbe11d2ff	-0.14240645
174	0x3e186266	0.14881286
175	0xbd5be13b	-0.053681593
176	0x3d8bfd5e	0.06835435
177	0x3cc90473	0.024538254
178	0x3cd9a33f	0.0265671
179	0xbd92fe5c	-0.071774215
180	0x3cc9a76e	0.02461597
181	0xbd62e990	-0.055398524
182	0xbde884fd	-0.113534905
183	0x3dc5a904	0.09651378
184	0x3e1fd7a6	0.15609607
185	0xbdf2fc68	-0.11864549
186	0xbd97ce5e	-0.07412408
187	0x3ad0ba15	0.0015924597
188	0x3dabb414	0.083839566
189	0x3df19e0b	0.117977224
190	0xbdd5db3a	-0.10442205
191	0xbe03b89c	-0.12863392
192	0xbcfb0928	-0.030644014
193	0x3c2a4b8e	0.01039399
194	0x3d9ef923	0.07762363
195	0xbbb5aec9	-0.0055445177
196	0xbe202b83	-0.15641598
197	0x3e099e62	0.13439324
198	0x3e42b2fb	0.19013588
199	0x3ae94877	0.0017798085
200	0xbd181170	-0.037126005
201	0xbbc5939a	-0.0060295584
202	0x3bb4a3f8	0.0055127107
203	0xbd3e925c	-0.046526298
204	0x3d5de6ff	0.054175373
205	0x3e2ace1b	0.16680185
206	0xbddca44c	-0.10773525
207	0xbd955ad6	-0.07292716
208	0xbe32bc2a	-0.17454591
209	0x3d96a758	0.07356137
210	0xbe097ea9	-0.13427223
211	0xbd826ad9	-0.06368036
212	0x3ccc274b	0.02492108
213	0xbc8e292a	-0.017353613
214	0x3e5c4ef6	0.21514496
215	0x3c68ba25	0.014204537
216	0x3c80f9c9	0.015744107
217	0x3c7842d9	0.0151526565
218	0x3e1219ba	0.14267626
219	0xbd9bcf5f	-0.07607912
220	0x3d6dda09	0.058069263
221	0xbe094059	-0.13403453
222	0x3d8aefd5	0.067840256
223	0x3dc2b630	0.09507406
224	0xbe05ed1c	-0.13078731
225	0xbc83c5b2	-0.01608548
226	0xbdc06e9c	-0.09396097
227	0x3d2a9d7b	0.04165409
228	0x3e03af9d	0.1285996
229	0x3d46f155	0.048569996
230	0x3c36ed1e	0.011164932
231	0xbd08a9f7	-0.033365216
232	0xbe0a6188	-0.13513768
233	0xbdd5b95a	-0.10435744
234	0x3e0d8510	0.1382029
235	0x3e16b696	0.14718089
236	0xbd63ebcb	-0.05564479
237	0xbd5ea20f	-0.05435377
238	0xb9161598	-0.00014313159
239	0x3de08e89	0.109646864
240	0xbd667814	-0.05626686
241	0x3e3a5626	0.18196926
242	0x3bc47ba3	0.005996184
243	0xbb1be35a	-0.0023786635
244	0x3c191511	0.0093434015
245	0x3e1a1e8c	0.15050715
246	0xbe1cdefc	-0.15319437
247	0x3e28f98b	0.16501443
248	0x3e08f3ba	0.13374224
249	0x3e179a5e	0.1480498
250	0x3de7303b	0.11288496
251	0x3e2e96f1	0.17049767
252	0x3da5d99a	0.08098145
253	0x3bff0da0	0.0077836066
254	0x3e3656ad	0.17806502
255	0xbc785c08	-0.015158661

6.bias f4 [30]
0	0x3dc3712e	0.09543072
1	0xbd90e68e	-0.07075225
2	0xbdf791fa	-0.1208839
3	0x3e350811	0.17678858
4	0xbd9abe86	-0.07555871
5	0x3c1b2d89	0.009471306
6	0xbdac22e5	-0.08405093
7	0x3e3c09b1	0.18363072
8	0x3d3530b9	0.04423592
9	0xbe0c2e17	-0.13689457
10	0x3e15f55e	0.14644381
11	0xbe3a4317	-0.18189655
12	0xbe1910c8	-0.14947808
13	0x3de4b370	0.111670375
14	0xbe187946	-0.14890012
15	0x3dde4e4b	0.10854777
16	0xbdbfbb5c	-0.09361908
17	0x3e32d6a0	0.17464685
18	0x3daf7d3b	0.08568808
19	0x3dfcc5a6	0.12342386
20	0xbdad2c82	-0.08455755
21	0xbdd3edeb	-0.103481136
22	0xbdd701cf	-0.10498392
23	0xbdf900dc	-0.12158367
24	0x3d6d882b	0.057991188
25	0x3e2a001a	0.16601601
26	0xbe3eb439	-0.18623437
27	0x3d3c6303	0.045992862
28	0xbbea4083	-0.0071488037
29	0x3d0477d6	0.032340847

8.weight f4 [30]
0	0x3f79c64e	0.97568214
1	0x3f7c7502	0.9861604
2	0x3f7905b7	0.97274345
3	0x3f788c32	0.9708892
4	0x3f774343	0.9658701
5	0x3f777e13	0.9667675
6	0x3f76c01a	0.96386874
7	0x3f75c5d4	0.96004987
8	0x3f79e468	0.97614145
9	0x3f77d09e	0.968027
10	0x3f789a55	0.9711049
11	0x3f7e8f09	0.99437004
12	0x3f75359c	0.95784926
13	0x3f75b9ca	0.95986617
14	0x3f7cb652	0.987157
15	0x3f7d37f7	0.9891352
16	0x3f7894cb	0.9710204
17	0x3f7d049e	0.9883517
18	0x3f7bbd30	0.9833555
19	0x3f70dbe3	0.9408552
20	0x3f789488	0.9710164
21	0x3f7582cb	0.959027
22	0x3f7d8345	0.99028426
23	0x3f79c404	0.9756472
24	0x3f7ef5c3	0.9959375
25	0x3f7946d6	0.9737371
26	0x3f8113a8	1.0084124
27	0x3f78de1c	0.9721391
28	0x3f7454c1	0.95441824
29	0x3f79ba60	0.9755001

8.bias f4 [30]
0	0x3e22d58b	0.15901773
1	0x3db2a439	0.08722729
2	0x3db0aeec	0.08627114
3	0x3de0a77d	0.10969446
4	0x3ddf9448	0.10916954
5	0xbe66e49c	-0.22548145
6	0x3e5e7340	0.21723652
7	0xbea8d8f4	-0.32978022
8	0x3d9677bb	0.073470555
9	0x3e6dcde5	0.23223074
10	0x3a011ff3	0.000492572
11	0xbd1344ab	-0.03595416
12	0xbe4a28bf	-0.19742106
13	0xbeb825bd	-0.35966292
14	0x3d6397da	0.05556474
15	0x3c0bff46	0.008544749
16	0x3c988617	0.018618627
17	0xbd919a26	-0.071094796
18	0x3e98b5f6	0.29826325
19	0xbe9065e2	-0.2820273
20	0xbd192962	-0.03739298
21	0xbea1da3d	-0.31611815
22	0x3e160acb	0.14652555
23	0x3d96d6d2	0.073651925
24	0x3e2e6bcc	0.17033309
25	0xbea2d8d7	-0.3180606
26	0x3dbaa7c5	0.09114031
27	0xbe030f5b	-0.12798826
28	0xbe6787a3	-0.22610335
29	0xbda0392c	-0.07823405

8.running_mean f4 [30]
0	0x3ec9f2e4	0.39443123
1	0x3e52d73a	0.20589915
2	0x3d9eb8aa	0.077500656
3	0x3eb5afff	0.35485837
4	0x3e3c7982	0.18405727
5	0x3eb5b8ee	0.35492653
6	0x3e804158	0.25049853
7	0x3e988d36	0.29795235
8	0x3e57a85e	0.2106032
9	0x3e680457	0.22657906
10	0x3eb061c5	0.34449592
11	0x3d5d76f5	0.054068524
12	0x3e2fb0e9	0.1715733
13	0x3ea3aaf4	0.31966364
14	0x3e0d0e73	0.13775043
15	0x3e87022e	0.2636885
16	0x3f02998c	0.51015544
17	0x3e98a425	0.29812732
18	0x3e3d9e38	0.18517387
19	0x3eb1cc96	0.347264
20	0x3e9855a5	0.29752842
21	0x3ddb0542	0.10694362
22	0x3eb38a3f	0.3506641
23	0x3e64ec5e	0.22355792
24	0x3ea3a0b7	0.31958553
25	0x3efe5c53	0.49679813
26	0x3e235e66	0.15953979
27	0x3e8a7111	0.27039388
28	0x3dd48b4a	0.1037813
29	0x3f0ee048	0.55810976

8.running_var f4 [30]
0	0x3ee65705	0.44988266
1	0x3e0fedaf	0.14055513
2	0x3d5b99d8	0.053613514
3	0x3eb55feb	0.35424742
4	0x3e030aa2	0.12797025
5	0x3ea90d61	0.3301802
6	0x3e548ea0	0.20757532
7	0x3e37864b	0.17922322
8	0x3df83da6	0.121211335
9	0x3e0dac7d	0.1383533
10	0x3e0f0cb4	0.1396969
11	0x3c638e0f	0.01388885
12	0x3d0a7830	0.033806026
13	0x3e96dc32	0.2946487
14	0x3cba15ce	0.022715475
15	0x3d305d1b	0.043057542
16	0x3e0aba25	0.13547571
17	0x3e60cb2e	0.21952507
18	0x3dd2be74	0.10290232
19	0x3ec48ead	0.38390103
20	0x3e64b973	0.22336368
21	0x3d373054	0.044723824
22	0x3eb80d05	0.35947433
23	0x3e4cb6bd	0.19991584
24	0x3ea3a69e	0.31963056
25	0x3f2be0d3	0.6713993
26	0x3d1a55e0	0.037679553
27	0x3d216672	0.03940434
28	0x3df9d939	0.12199635
29	0x3e27e79e	0.16396949

9.weight f4 [5, 30]
0	0xbd0aad10	-0.03385645
1	0x3db57ae9	0.08861334
2	0x3db5909c	0.08865473
3	0xbcfab002	-0.030601505
4	0x3d95d5aa	0.07316144
5	0xbda8c9c0	-0.08241606
6	0x3df77c07	0.12084203
7	0x3b8fad65	0.004384684
8	0x3c1dfe37	0.009643129
9	0x3d9ad533	0.07560196
10	0xbd82dd35	-0.06389848
11	0x3d9d744c	0.076881975
12	0x3d2d3193	0.042283606
13	0xbe4e8a4f	-0.20169948
14	0x3d19a878	0.03751418
15	0xbaab2425	-0.0013057037
16	0x3b477f36	0.0030440814
17	0xbd8c25fb	-0.06843182
18	0x3e1096a5	0.14119966
19	0xbd31308d	-0.043259192
20	0x3d422010	0.04739386
21	0x3b7ad9b5	0.0038276736
22	0x3e6e14cf	0.23250125
23	0x3dc5434a	0.09631975
24	0xbd6d7a58	-0.057978004
25	0x3da85ce5	0.08220843
26	0xbe1bcd9e	-0.15215155
27	0xbde47185	-0.11154465
28	0xbe0aeea7	-0.13567601
29	0x3dbd7489	0.09250743
30	0x3e482d6a	0.19548574
31	0x3d46ae15	0.04850586
32	0x3de6abf2	0.11263265
33	0x3d95d1f0	0.07315433
34	0x3d124f14	0.035719946
35	0xbe5e9e41	-0.21740057
36	0x3e73009c	0.23730701
37	0xbe4cb883	-0.1999226
38	0x3da9fc1d	0.0830004
39	0x3e650867	0.22366486
40	0x3d13adf3	0.036054563
41	0xbe22b975	-0.15891059
42	0xbdb245a9	-0.08704693
43	0xbe50ad6a	-0.20378652
44	0xbe2fa016	-0.17150912
45	0xbbb36946	-0.005475196
46	0xbdb69e67	-0.089169316
47	0xbe24829b	-0.16065447
48	0x3dc6fb25	0.09715871
49	0xbe471994	-0.19443351
50	0xbdd8036e	-0.10547529
51	0xbe710d7e	-0.23540303
52	0x3e42d264	0.1902557
53	0x3e634e0e	0.22197744
54	0x3e76c8bb	0.2410001
55	0xbe910254	-0.2832209
56	0x3e690b95	0.22758324
57	0xbdc38e64	-0.09548643
58	0xbe1a3017	-0.15057407
59	0xbe026bd4	-0.12736446
60	0x3c384ab1	0.011248277
61	0xbc707244	-0.014675681
62	0x3d4d2252	0.05008156
63	0xbbb0458c	-0.0053793844
64	0xbce09ef3	-0.027419543
65	0xbda2f7e3	-0.07957437
66	0x3dde2d1f	0.1084845
67	0xbd5607fe	-0.052253716
68	0x3cefdc8e	0.029279973
69	0x3d592133	0.053010177
70	0x3c29d590	0.010365859
71	0x3d4f7fe1	0.050659064
72	0x3e17a049	0.14807238
73	0x3e1bc3ba	0.15211383
74	0x3d66cbc7	0.05634668
75	0x3d57026e	0.05249255
76	0xbdf36d24	-0.11886051
77	0x3d8654d3	0.06559148
78	0x3c156703	0.009118798
79	0x3d9144a8	0.07093173
80	0x3df08582	0.117442146
81	0x3de4e5b3	0.11176624
82	0xbe2fff0a	-0.17187133
83	0x3dd24da9	0.10268719
84	0xbe0f0dcd	-0.13970108
85	0x3e041ced	0.1290166
86	0xbe160dab	-0.14653651
87	0xbd17863c	-0.03699325
88	0x3b2d95ab	0.0026486914
89	0xbe0abe16	-0.13549075
90	0xbde5a52f	-0.11213147
91	0xbd9ca8ba	-0.076493695
92	0x3c95c585	0.018282661
93	0xbe6830a6	-0.22674808
94	0x3decfda8	0.115718186
95	0xbd3b48ce	-0.04572373
96	0xbde215cd	-0.110393144
97	0x3e510a73	0.20414142
98	0xbdb82199	-0.08990783
99	0xbd78f183	-0.0607772
100	0x3d2bcea3	0.04194511
101	0xbc68166e	-0.014165504
102	0x3dd79a0a	0.105274275
103	0x3e7001f4	0.23438245
104	0xbe11ee4b	-0.14251058
105	0xbe5eb47d	-0.21748538
106	0xbd9e6627	-0.07734328
107	0x3d1a598c	0.037683055
108	0xbd41d087	-0.047318008
109	0x3e1d5ab7	0.15366636
110	0xbde316e9	-0.11088354
111	0x3da6997a	0.08134742
112	0x39c8dd4c	0.00038311852
113	0x3b60e699	0.0034317134
114	0x3d9bb379	0.07602591
115	0x3e444ac3	0.19169144
116	0xbe1d5ee7	-0.15368234
117	0x3e6ac50f	0.22926734
118	0xbdf9c8bb	-0.121964894
119	0xbdc04a45	-0.09389166
120	0xbd93fe6c	-0.072262615
121	0x3dbe5f2e	0.09295498
122	0x3d0302c3	0.031985056
123	0x3d2d4a7c	0.042307362
124	0xbe23c649	-0.15993609
125	0x3e01e1f8	0.12683856
126	0xbd6565ac	-0.056005165
127	0x3e5634b1	0.20918538
128	0xbd26a5bb	-0.040685397
129	0xbd723829	-0.05913559
130	0x3d83d9ae	0.064380035
131	0x3d9230f6	0.07138245
132	0x3d881dea	0.06646331
133	0x3d877034	0.06613198
134	0xbe3e4816	-0.18582186
135	0x3c84cdfc	0.016211502
136	0xbe1d35ed	-0.15352602
137	0xbdf7ec58	-0.12105626
138	0xbea0f074	-0.3143345
139	0x3d744f69	0.059646044
140	0xbdc83622	-0.0977595
141	0x3e327a38	0.17429435
142	0x3dfc668e	0.12324248
143	0x3e19cfd5	0.15020688
144	0xbd9990de	-0.07498334
145	0x3e0318aa	0.12802377
146	0x3d0baacf	0.034098443
147	0xbdc09fde	-0.09405492
148	0x3dec6306	0.11542325
149	0x3e2d9fe0	0.16955519

9.bias f4 [5]
0	0x3ecde7f5	0.40216032
1	0x3fa578c3	1.2927479
2	0xbe8f9307	-0.2804186
3	0xbe9e4b8d	-0.30917016
4	0xbf47ac18	-0.7799697
